system/system/saiv/textrecognition/stride/mSTRTextDetection_DetectText.tflite (tflite, 189800 bytes, 30 tensors)

quantize_1/conv_d2s_2/depthwise_kernel i1 [1, 3, 3, 64]
000000 4f 4b 4b 9d 41 7f 14 92 81 65 a0 2d ef 2c dc 2d
       79 75 75 -99 65 127 20 -110 -127 101 -96 45 -17 44 -36 45
000010 6f 1a 5b 5f 25 6e 81 fe f1 42 ca b2 26 31 a0 52
       111 26 91 95 37 110 -127 -2 -15 66 -54 -78 38 49 -96 82
000020 fe 0c 91 11 0a d9 f7 a9 ca 21 2b ef 9c 9c 43 11
       -2 12 -111 17 10 -39 -9 -87 -54 33 43 -17 -100 -100 67 17
000030 03 30 6e f3 00 ec 13 c4 79 e0 b2 81 17 7f 3b 88
       3 48 110 -13 0 -20 19 -60 121 -32 -78 -127 23 127 59 -120
000040 fe 77 4d fd 57 79 0f 0e b1 be ef 81 f8 7f a5 4c
       -2 119 77 -3 87 121 15 14 -79 -66 -17 -127 -8 127 -91 76
000050 4d ed 7f 6a 29 70 cf f2 37 6f 46 7f ed 8f 96 08
       77 -19 127 106 41 112 -49 -14 55 111 70 127 -19 -113 -106 8
000060 8a dd 3e f6 20 c9 81 27 7f 56 ae ed d7 8b 56 3a
       -118 -35 62 -10 32 -55 -127 39 127 86 -82 -19 -41 -117 86 58
000070 2e 7b 16 90 fb 1b ff 7f 1a 81 37 c3 81 4f 60 f5
       46 123 22 -112 -5 27 -1 127 26 -127 55 -61 -127 79 96 -11
000080 81 70 23 57 d6 6d 81 2f cb a7 7f 15 0d 0f ca 4f
       -127 112 35 87 -42 109 -127 47 -53 -89 127 21 13 15 -54 79
000090 81 fc 1c 6a 04 2b 0d fc 15 81 d1 1d af f0 c5 fa
       -127 -4 28 106 4 43 13 -4 21 -127 -47 29 -81 -16 -59 -6
0000a0 81 0d 67 d1 ff 68 48 0c e1 fd c0 03 ef 47 f0 7f
       -127 13 103 -47 -1 104 72 12 -31 -3 -64 3 -17 71 -16 127
0000b0 29 70 b0 15 f6 4c fe 28 be 86 61 aa f6 2c 4c 11
       41 112 -80 21 -10 76 -2 40 -66 -122 97 -86 -10 44 76 17
0000c0 77 c0 59 81 7f e8 24 81 45 7f 8f 37 ff 2b 1e 19
       119 -64 89 -127 127 -24 36 -127 69 127 -113 55 -1 43 30 25
0000d0 5b 7f 40 0b 37 fb 25 e7 81 23 7f 8c 1a 7f 44 1a
       91 127 64 11 55 -5 37 -25 -127 35 127 -116 26 127 68 26
0000e0 33 4b aa 50 9f a3 f3 b9 5c d5 32 0d cb 08 6c 93
       51 75 -86 80 -97 -93 -13 -71 92 -43 50 13 -53 8 108 -109
0000f0 05 81 37 7f f6 bc a2 83 61 5f c3 35 e8 43 7f ae
       5 -127 55 127 -10 -68 -94 -125 97 95 -61 53 -24 67 127 -82

quantize_1/fire2Stud_expand_1x1/kernel i1 [44, 1, 1, 12]
000000 e8 14 44 0f cb 81 04 20 a5 cb a3 2f c3 46 ed 7f
       -24 20 68 15 -53 -127 4 32 -91 -53 -93 47 -61 70 -19 127
000010 45 03 fb 19 f7 ff 82 9e e7 fc a7 40 8f fb 69 f5
       69 3 -5 25 -9 -1 -126 -98 -25 -4 -89 64 -113 -5 105 -11
000020 85 7f 3b 53 07 81 f6 0c 1b 74 d7 1a a8 d7 f8 3d
       -123 127 59 83 7 -127 -10 12 27 116 -41 26 -88 -41 -8 61
000030 f0 f6 e5 a0 0b 0e 20 94 92 1c 81 f4 1e f3 24 d4
       -16 -10 -27 -96 11 14 32 -108 -110 28 -127 -12 30 -13 36 -44
000040 14 39 81 4f bc 93 f3 bc 22 55 84 28 3a 19 e0 eb
       20 57 -127 79 -68 -109 -13 -68 34 85 -124 40 58 25 -32 -21
000050 81 28 78 de 30 81 c0 c8 07 fc fa 13 f2 fe ab 5c
       -127 40 120 -34 48 -127 -64 -56 7 -4 -6 19 -14 -2 -85 92
000060 f7 8d 01 36 47 b2 dc 07 d3 a0 22 81 f8 f6 20 f1
       -9 -115 1 54 71 -78 -36 7 -45 -96 34 -127 -8 -10 32 -15
000070 4d fb 55 9b 17 cb 1b 7f 23 0d bf fc 23 1b 1a 81
       77 -5 85 -101 23 -53 27 127 35 13 -65 -4 35 27 26 -127
000080 23 ef 1a 14 b9 7f 53 42 34 ba 28 23 bf 25 dd 0a
       35 -17 26 20 -71 127 83 66 52 -70 40 35 -65 37 -35 10
000090 e3 34 ce ce cf 0d d2 16 1a fa 81 f4 49 32 2f 7f
       -29 52 -50 -50 -49 13 -46 22 26 -6 -127 -12 73 50 47 127
0000a0 d6 eb 0e 2e 50 f2 db f9 63 24 0f a7 98 7f f8 12
       -42 -21 14 46 80 -14 -37 -7 99 36 15 -89 -104 127 -8 18
0000b0 4b f6 2b dd 28 10 c6 24 9d 69 72 09 2b 5d 81 1c
       75 -10 43 -35 40 16 -58 36 -99 105 114 9 43 93 -127 28
0000c0 1d ef ba 41 67 0b 12 81 64 f5 0a 02 29 11 f5 d6
       29 -17 -70 65 103 11 18 -127 100 -11 10 2 41 17 -11 -42
0000d0 27 4c f2 65 27 42 7d 81 11 7c ea 14 24 3c 95 81
       39 76 -14 101 39 66 125 -127 17 124 -22 20 36 60 -107 -127
0000e0 c2 fa fe 05 b6 e3 dd 72 50 81 30 34 48 98 35 3c
       -62 -6 -2 5 -74 -29 -35 114 80 -127 48 52 72 -104 53 60
0000f0 23 03 81 09 6c ea fd 9b 52 03 99 17 d0 f6 97 51
       35 3 -127 9 108 -22 -3 -101 82 3 -103 23 -48 -10 -105 81

quantize_1/fire2Stud_expand_3x3/kernel i1 [40, 3, 3, 12]
000000 e8 4d b6 22 f8 2c 8e da fb 16 d7 9f cc cd 8a e2
       -24 77 -74 34 -8 44 -114 -38 -5 22 -41 -97 -52 -51 -118 -30
000010 03 eb da 06 0d 10 97 e1 1a b3 e2 e0 1e 00 ee 16
       3 -21 -38 6 13 16 -105 -31 26 -77 -30 -32 30 0 -18 22
000020 08 f3 cf 40 cb 63 1a 07 f5 3e d8 be cc 15 1d 85
       8 -13 -49 64 -53 99 26 7 -11 62 -40 -66 -52 21 29 -123
000030 37 de 5a 75 3f ed 07 7f fd d3 17 13 27 b3 43 b6
       55 -34 90 117 63 -19 7 127 -3 -45 23 19 39 -77 67 -74
000040 04 1b d8 0c de f8 4d 64 08 49 03 1e 2a e1 0f df
       4 27 -40 12 -34 -8 77 100 8 73 3 30 42 -31 15 -33
000050 17 44 1d ff d7 f8 e3 f4 13 ab 08 02 fb f4 ec 16
       23 68 29 -1 -41 -8 -29 -12 19 -85 8 2 -5 -12 -20 22
000060 f8 40 fe 03 bb 33 29 c7 1a 39 0c 04 00 19 31 38
       -8 64 -2 3 -69 51 41 -57 26 57 12 4 0 25 49 56
000070 03 2a fa 34 28 20 2d 0d e8 11 05 d8 16 11 e0 fa
       3 42 -6 52 40 32 45 13 -24 17 5 -40 22 17 -32 -6
000080 dc 33 d8 e2 02 19 00 fb e3 2e 13 bc eb 1b e2 f3
       -36 51 -40 -30 2 25 0 -5 -29 46 19 -68 -21 27 -30 -13
000090 df 18 13 f7 05 d2 09 17 e7 f4 cb cf 81 f6 9e 94
       -33 24 19 -9 5 -46 9 23 -25 -12 -53 -49 -127 -10 -98 -108
0000a0 db f4 d4 bf 92 f5 89 d1 ec 36 22 2a f3 06 f9 1f
       -37 -12 -44 -65 -110 -11 -119 -47 -20 54 34 42 -13 6 -7 31
0000b0 0e 1b 0a 1f d9 2d f7 fb ed 1f 35 03 df 30 ef 05
       14 27 10 31 -39 45 -9 -5 -19 31 53 3 -33 48 -17 5
0000c0 0e ee f3 f6 04 d7 1d 0e da fc fb 19 02 3d 07 2f
       14 -18 -13 -10 4 -41 29 14 -38 -4 -5 25 2 61 7 47
0000d0 0c 36 48 2b 36 f7 2b 1e ed fd 19 e6 e0 03 d5 fa
       12 54 72 43 54 -9 43 30 -19 -3 25 -26 -32 3 -43 -6
0000e0 df 15 fc de cb f8 32 d9 d1 f2 3b 01 eb 29 2d 19
       -33 21 -4 -34 -53 -8 50 -39 -47 -14 59 1 -21 41 45 25
0000f0 0b cc 08 dc e5 f8 fd fc 07 fb f5 28 35 d2 2e c7
       11 -52 8 -36 -27 -8 -3 -4 7 -5 -11 40 53 -46 46 -57

quantize_1/fire2Stud_squeeze/kernel i1 [12, 1, 1, 64]
000000 ea 7f c7 ed 18 1d 08 db cc 15 d2 d7 ce 1d 15 cd
       -22 127 -57 -19 24 29 8 -37 -52 21 -46 -41 -50 29 21 -51
000010 fa f4 bd 24 11 4f fc fc ea 36 22 e9 07 fe 27 e3
       -6 -12 -67 36 17 79 -4 -4 -22 54 34 -23 7 -2 39 -29
000020 4f e0 09 20 f1 4e 77 3d b8 f2 56 0d d2 f3 cc 7d
       79 -32 9 32 -15 78 119 61 -72 -14 86 13 -46 -13 -52 125
000030 1a 23 a6 50 19 fa eb 26 9b 03 c5 14 06 98 c1 fd
       26 35 -90 80 25 -6 -21 38 -101 3 -59 20 6 -104 -63 -3
000040 09 b9 4d 5f 41 f8 db 3f 21 eb 3c 21 f7 25 02 24
       9 -71 77 95 65 -8 -37 63 33 -21 60 33 -9 37 2 36
000050 3e e0 03 01 f1 e6 22 ce cd 25 34 c5 2f dd 34 3f
       62 -32 3 1 -15 -26 34 -50 -51 37 52 -59 47 -35 52 63
000060 e8 35 1c 27 18 f0 38 23 13 17 d2 16 fd 57 40 df
       -24 53 28 39 24 -16 56 35 19 23 -46 22 -3 87 64 -33
000070 d3 b8 41 b2 1f 0d 17 d9 7f ba 20 25 15 52 fe 54
       -45 -72 65 -78 31 13 23 -39 127 -70 32 37 21 82 -2 84
000080 f8 f0 3c 42 0d c0 ea 54 dc f5 26 4c e6 02 e0 de
       -8 -16 60 66 13 -64 -22 84 -36 -11 38 76 -26 2 -32 -34
000090 4f 6e f1 d2 4d f0 e7 5e 45 29 fb f4 1a 5f 0b 02
       79 110 -15 -46 77 -16 -25 94 69 41 -5 -12 26 95 11 2
0000a0 eb 52 0c 0b f0 0c 53 4a 12 dc 34 17 bf 1e 0d ca
       -21 82 12 11 -16 12 83 74 18 -36 52 23 -65 30 13 -54
0000b0 f9 0b 07 15 49 28 7f 4e fc 02 11 d6 fc f4 11 4d
       -7 11 7 21 73 40 127 78 -4 2 17 -42 -4 -12 17 77
0000c0 d9 fa ec f5 1a f5 20 20 65 f0 fb f7 2e 52 df 2b
       -39 -6 -20 -11 26 -11 32 32 101 -16 -5 -9 46 82 -33 43
0000d0 ee ec 7f 0c 19 62 05 e2 f8 1f 38 f4 e3 02 e9 0e
       -18 -20 127 12 25 98 5 -30 -8 31 56 -12 -29 2 -23 14
0000e0 13 00 5b 12 49 fd 04 10 56 49 dd 06 39 e6 33 39
       19 0 91 18 73 -3 4 16 86 73 -35 6 57 -26 51 57
0000f0 2f 47 e7 e9 d9 e0 e0 f2 eb 59 ea d3 35 2f 27 0a
       47 71 -25 -23 -39 -32 -32 -14 -21 89 -22 -45 53 47 39 10

quantize_1/fire3_2Stud_expand_1x1/kernel i1 [44, 1, 1, 12]
000000 bf 7f 18 d3 7c 43 66 30 0e 16 b3 0a f3 9e 7f aa
       -65 127 24 -45 124 67 102 48 14 22 -77 10 -13 -98 127 -86
000010 9c 3f 18 c4 17 b2 bf da 81 33 86 2a 20 08 17 50
       -100 63 24 -60 23 -78 -65 -38 -127 51 -122 42 32 8 23 80
000020 fa 24 c1 d6 f2 de f9 a4 1e d3 1c c4 7f 3a ca 45
       -6 36 -63 -42 -14 -34 -7 -92 30 -45 28 -60 127 58 -54 69
000030 8b 13 73 5d 0e f4 81 8e 74 66 d9 e7 31 f3 00 c2
       -117 19 115 93 14 -12 -127 -114 116 102 -39 -25 49 -13 0 -62
000040 f0 2b 0b 19 7f d8 f9 f4 2f ff 81 19 0c ac 27 2c
       -16 43 11 25 127 -40 -7 -12 47 -1 -127 25 12 -84 39 44
000050 fc fe e1 c9 c7 59 1a 33 81 71 06 ea 91 26 33 c8
       -4 -2 -31 -55 -57 89 26 51 -127 113 6 -22 -111 38 51 -56
000060 2c 30 c4 e6 3f 7f 10 b8 49 9f 20 08 0c e8 e4 21
       44 48 -60 -26 63 127 16 -72 73 -97 32 8 12 -24 -28 33
000070 f3 56 bd fc 81 2f 1a eb 1a ff f5 17 fe ab de 81
       -13 86 -67 -4 -127 47 26 -21 26 -1 -11 23 -2 -85 -34 -127
000080 a6 bd e9 2f ff 0f 32 81 03 19 03 f1 93 35 af 57
       -90 -67 -23 47 -1 15 50 -127 3 25 3 -15 -109 53 -81 87
000090 5c e2 e1 de ca b7 07 fb 81 ce e3 69 eb ef c3 2c
       92 -30 -31 -34 -54 -73 7 -5 -127 -50 -29 105 -21 -17 -61 44
0000a0 fe f2 09 4f 35 7f ca db 3f 9e fe fc a6 e4 81 f5
       -2 -14 9 79 53 127 -54 -37 63 -98 -2 -4 -90 -28 -127 -11
0000b0 0b f9 37 e0 35 fd ab 1b 03 da 31 7f 0c b0 d1 11
       11 -7 55 -32 53 -3 -85 27 3 -38 49 127 12 -80 -47 17
0000c0 ca e7 e8 bc b0 2d d3 7f 12 0b dd c9 ff d0 b0 4d
       -54 -25 -24 -68 -80 45 -45 127 18 11 -35 -55 -1 -48 -80 77
0000d0 e0 f8 c1 0d ee 81 f6 d0 11 8f 2a be 81 c1 31 48
       -32 -8 -63 13 -18 -127 -10 -48 17 -113 42 -66 -127 -63 49 72
0000e0 90 3d ad ee 20 e2 5e 04 d7 ca 15 cd 81 e9 a5 1e
       -112 61 -83 -18 32 -30 94 4 -41 -54 21 -51 -127 -23 -91 30
0000f0 aa 8e 81 ab c1 30 ef 24 10 dc 24 5b 13 81 ba cc
       -86 -114 -127 -85 -63 48 -17 36 16 -36 36 91 19 -127 -70 -52

quantize_1/fire3_2Stud_expand_3x3/kernel i1 [40, 3, 3, 12]
000000 d3 fd cd d2 fd cc fb e5 fe f8 c9 fe cf ba a8 e4
       -45 -3 -51 -46 -3 -52 -5 -27 -2 -8 -55 -2 -49 -70 -88 -28
000010 92 e1 2c e0 fe 2d b5 ed 12 21 d8 2a 2e f0 7f 4f
       -110 -31 44 -32 -2 45 -75 -19 18 33 -40 42 46 -16 127 79
000020 12 0c f8 13 08 fe e8 d7 d5 cb 0d e3 0a 28 96 c5
       18 12 -8 19 8 -2 -24 -41 -43 -53 13 -29 10 40 -106 -59
000030 3a fc 03 06 e6 de 29 20 32 34 02 a9 34 4d 45 1c
       58 -4 3 6 -26 -34 41 32 50 52 2 -87 52 77 69 28
000040 6e 42 44 39 2b 04 3f ff f7 0f f3 3d ff da 63 db
       110 66 68 57 43 4 63 -1 -9 15 -13 61 -1 -38 99 -37
000050 c8 3f c7 a0 e5 1c 0e 2c 1c 09 0b f9 ed 24 09 a8
       -56 63 -57 -96 -27 28 14 44 28 9 11 -7 -19 36 9 -88
000060 fe f7 e4 c9 08 19 0d f8 ed e4 f1 f4 50 23 00 fe
       -2 -9 -28 -55 8 25 13 -8 -19 -28 -15 -12 80 35 0 -2
000070 05 07 fa 1d 27 1c 16 e5 b7 c3 e9 d3 d6 ab 35 13
       5 7 -6 29 39 28 22 -27 -73 -61 -23 -45 -42 -85 53 19
000080 dd bf b9 42 ad 03 01 d5 ea d1 fc 0b dc c7 28 22
       -35 -65 -71 66 -83 3 1 -43 -22 -47 -4 11 -36 -57 40 34
000090 56 0d fe 04 05 33 fa dc 0a 42 0b 81 09 1d ee eb
       86 13 -2 4 5 51 -6 -36 10 66 11 -127 9 29 -18 -21
0000a0 0d 24 d8 d0 0c 3a 03 e6 cd 02 26 e6 00 d1 e1 09
       13 36 -40 -48 12 58 3 -26 -51 2 38 -26 0 -47 -31 9
0000b0 dd da ed 24 30 e9 03 ee e7 f6 f5 03 fe 09 df e5
       -35 -38 -19 36 48 -23 3 -18 -25 -10 -11 3 -2 9 -33 -27
0000c0 26 08 be 0c 03 10 1d 20 04 3e 08 ae 2f 09 15 e7
       38 8 -66 12 3 16 29 32 4 62 8 -82 47 9 21 -25
0000d0 07 0b 23 e1 0e ec 10 f3 b6 e8 17 d2 e0 fa e3 fa
       7 11 35 -31 14 -20 16 -13 -74 -24 23 -46 -32 -6 -29 -6
0000e0 f9 e1 49 f0 08 d0 4b cd e2 f6 e4 2c b0 0b d6 bb
       -7 -31 73 -16 8 -48 75 -51 -30 -10 -28 44 -80 11 -42 -69
0000f0 19 1b f4 86 fa 7f c6 17 13 46 22 c2 c5 f3 21 20
       25 27 -12 -122 -6 127 -58 23 19 70 34 -62 -59 -13 33 32

quantize_1/fire3_2Stud_squeeze/kernel i1 [12, 1, 1, 84]
000000 d5 01 db 31 b2 cf c0 51 bb 36 f2 fc d7 12 14 07
       -43 1 -37 49 -78 -49 -64 81 -69 54 -14 -4 -41 18 20 7
000010 09 06 bd 2c 1a d1 25 10 5d b2 0c 4e 81 06 d0 c1
       9 6 -67 44 26 -47 37 16 93 -78 12 78 -127 6 -48 -63
000020 db c7 25 0d 1c c1 d6 21 18 0b fb ab de f3 eb ec
       -37 -57 37 13 28 -63 -42 33 24 11 -5 -85 -34 -13 -21 -20
000030 11 f6 c8 fa 16 1d 36 17 18 d5 1d e9 0f f6 d0 15
       17 -10 -56 -6 22 29 54 23 24 -43 29 -23 15 -10 -48 21
000040 04 f1 08 04 fb 08 07 1d c3 1b 1c 00 2e f7 f9 d3
       4 -15 8 4 -5 8 7 29 -61 27 28 0 46 -9 -7 -45
000050 fb eb da 06 b7 01 d9 05 b9 30 ea e2 ac e6 f7 d3
       -5 -21 -38 6 -73 1 -39 5 -71 48 -22 -30 -84 -26 -9 -45
000060 53 fd 46 19 1e 3c 23 dd 36 df bf f4 28 6e dd de
       83 -3 70 25 30 60 35 -35 54 -33 -65 -12 40 110 -35 -34
000070 9f f1 c3 26 b0 3b 2f a6 15 15 0e ed f5 3a 22 c0
       -97 -15 -61 38 -80 59 47 -90 21 21 14 -19 -11 58 34 -64
000080 c3 03 4b f6 fd 25 f0 32 ee fd 3c e2 26 0a 23 07
       -61 3 75 -10 -3 37 -16 50 -18 -3 60 -30 38 10 35 7
000090 cd da 81 0c e2 2a 02 fb 33 23 da 39 05 e9 07 77
       -51 -38 -127 12 -30 42 2 -5 51 35 -38 57 5 -23 7 119
0000a0 fe 5c e0 47 e2 f4 d6 0a e9 05 ce fb a2 35 0a f7
       -2 92 -32 71 -30 -12 -42 10 -23 5 -50 -5 -94 53 10 -9
0000b0 37 ba e0 4c 4a 45 01 28 da 52 ba 41 06 43 88 2a
       55 -70 -32 76 74 69 1 40 -38 82 -70 65 6 67 -120 42
0000c0 e7 d8 b0 db 87 09 a9 e5 cb 81 22 f5 aa d6 50 37
       -25 -40 -80 -37 -121 9 -87 -27 -53 -127 34 -11 -86 -42 80 55
0000d0 1a 30 1b fb df 2d 46 10 fe fb 0b fe ee 1b dd f8
       26 48 27 -5 -33 45 70 16 -2 -5 11 -2 -18 27 -35 -8
0000e0 d5 0a fc 1c 1b d5 a1 18 19 f4 06 08 07 e0 a8 07
       -43 10 -4 28 27 -43 -95 24 25 -12 6 8 7 -32 -88 7
0000f0 4a ef 1a e7 f2 e3 d3 26 f6 fe bc e0 12 17 05 1c
       74 -17 26 -25 -14 -29 -45 38 -10 -2 -68 -32 18 23 5 28

quantize_1/fire4_2Stud_expand_1x1/kernel i1 [63, 1, 1, 16]
000000 f9 38 81 b9 fb e1 6a 3c b9 78 37 07 04 44 ef 3e
       -7 56 -127 -71 -5 -31 106 60 -71 120 55 7 4 68 -17 62
000010 1b dc 2a cc 30 f1 c1 0e f4 2d d3 7f fa d8 e6 40
       27 -36 42 -52 48 -15 -63 14 -12 45 -45 127 -6 -40 -26 64
000020 a2 1b 00 26 5d dd 9d 01 f2 bc 07 d8 7f ce ca ef
       -94 27 0 38 93 -35 -99 1 -14 -68 7 -40 127 -50 -54 -17
000030 35 02 52 75 2a f8 22 02 f3 ef 27 fb 7f e4 01 c3
       53 2 82 117 42 -8 34 2 -13 -17 39 -5 127 -28 1 -61
000040 18 98 dc 13 f9 47 44 7f e2 05 9c 17 15 e3 35 6a
       24 -104 -36 19 -7 71 68 127 -30 5 -100 23 21 -29 53 106
000050 54 34 09 b6 f8 b1 f6 3f bf 3d dc 81 e2 f7 ea 07
       84 52 9 -74 -8 -79 -10 63 -65 61 -36 -127 -30 -9 -22 7
000060 26 f0 3c 81 13 e0 fe 26 e9 aa 1d 1f 26 de 25 0d
       38 -16 60 -127 19 -32 -2 38 -23 -86 29 31 38 -34 37 13
000070 1f 1c c5 a4 7f 0a 14 4f 03 bd 4c ff d5 4b e4 b9
       31 28 -59 -92 127 10 20 79 3 -67 76 -1 -43 75 -28 -71
000080 be 52 f3 7f b9 26 e8 d6 f7 3a b0 a6 1f ee a6 ef
       -66 82 -13 127 -71 38 -24 -42 -9 58 -80 -90 31 -18 -90 -17
000090 2b 0a 22 f5 54 a5 f8 43 ca 63 03 81 c6 2f 67 11
       43 10 34 -11 84 -91 -8 67 -54 99 3 -127 -58 47 103 17
0000a0 db bc d5 2f d6 9d 43 7e 81 ce eb e7 19 ed ae f0
       -37 -68 -43 47 -42 -99 67 126 -127 -50 -21 -25 25 -19 -82 -16
0000b0 e0 2b 18 8d 0d ca 1b f0 bd 81 4f be 7b 81 e5 08
       -32 43 24 -115 13 -54 27 -16 -67 -127 79 -66 123 -127 -27 8
0000c0 ff 50 57 bc 9e 28 81 2f 08 33 e1 b8 49 dc 9c 0f
       -1 80 87 -68 -98 40 -127 47 8 51 -31 -72 73 -36 -100 15
0000d0 0d 61 38 53 28 3a f9 f0 4a 93 0f 1d 81 9f ce 52
       13 97 56 83 40 58 -7 -16 74 -109 15 29 -127 -97 -50 82
0000e0 ea d7 ca e1 da f2 eb e8 6b 10 11 7f 0e f8 d9 23
       -22 -41 -54 -31 -38 -14 -21 -24 107 16 17 127 14 -8 -39 35
0000f0 a9 7f 26 bc b9 ac dd 46 20 cb b2 07 9c e5 b9 78
       -87 127 38 -68 -71 -84 -35 70 32 -53 -78 7 -100 -27 -71 120

quantize_1/fire4_2Stud_expand_3x3/kernel i1 [53, 3, 3, 16]
000000 fe bb ef e3 ea ef 0b dc 81 0b d3 1d dc 2c a9 04
       -2 -69 -17 -29 -22 -17 11 -36 -127 11 -45 29 -36 44 -87 4
000010 1a 2a 10 e1 16 e6 0d f9 89 43 09 f6 d3 15 ab 38
       26 42 16 -31 22 -26 13 -7 -119 67 9 -10 -45 21 -85 56
000020 f9 f8 17 eb e1 10 e6 14 83 d4 db d8 16 ff c3 26
       -7 -8 23 -21 -31 16 -26 20 -125 -44 -37 -40 22 -1 -61 38
000030 17 06 0d ed 05 1a 4a b7 ed 05 22 00 ef 26 ea fe
       23 6 13 -19 5 26 74 -73 -19 5 34 0 -17 38 -22 -2
000040 c5 2c 3b 0e 28 dd 10 cf d0 0f 3d ee 11 10 fa 31
       -59 44 59 14 40 -35 16 -49 -48 15 61 -18 17 16 -6 49
000050 a3 c9 55 f2 1f 28 fd b6 e4 ec 34 c7 1e 18 fc 03
       -93 -55 85 -14 31 40 -3 -74 -28 -20 52 -57 30 24 -4 3
000060 f7 cd e4 f6 f5 f3 03 01 1a 02 0a 05 11 01 fc f0
       -9 -51 -28 -10 -11 -13 3 1 26 2 10 5 17 1 -4 -16
000070 fb 13 20 e7 f0 d9 32 ed 26 18 1d da 0c 08 1d 07
       -5 19 32 -25 -16 -39 50 -19 38 24 29 -38 12 8 29 7
000080 0b d8 ff d2 ee 15 08 d4 6b c5 0e da 1a 09 02 e7
       11 -40 -1 -46 -18 21 8 -44 107 -59 14 -38 26 9 2 -25
000090 07 34 f5 fb 14 22 fa 19 df 23 e9 2c dd af cd bd
       7 52 -11 -5 20 34 -6 25 -33 35 -23 44 -35 -81 -51 -67
0000a0 ea 1f 3a 3c 18 0c 07 45 fb d9 0c 1c 3d f6 ed 1d
       -22 31 58 60 24 12 7 69 -5 -39 12 28 61 -10 -19 29
0000b0 e6 42 25 3d 07 f1 14 27 49 fc 2e 22 23 40 12 28
       -26 66 37 61 7 -15 20 39 73 -4 46 34 35 64 18 40
0000c0 e5 c9 b3 81 bd d9 dc be b7 00 36 c0 d0 2e de ce
       -27 -55 -77 -127 -67 -39 -36 -66 -73 0 54 -64 -48 46 -34 -50
0000d0 b0 e6 e5 d8 f4 fb b8 00 b4 09 e2 fa 06 a5 d4 da
       -80 -26 -27 -40 -12 -5 -72 0 -76 9 -30 -6 6 -91 -44 -38
0000e0 f0 18 36 59 4f fd 36 28 31 e4 f9 46 39 b6 09 21
       -16 24 54 89 79 -3 54 40 49 -28 -7 70 57 -74 9 33
0000f0 dd ca 09 be f0 f3 fe 03 eb d1 25 f3 f4 2b ee 31
       -35 -54 9 -66 -16 -13 -2 3 -21 -47 37 -13 -12 43 -18 49

quantize_1/fire4_2Stud_squeeze/kernel i1 [16, 1, 1, 84]
000000 04 d0 18 fc ca 8a f4 08 d6 9d f4 3a 1a 9f ef b9
       4 -48 24 -4 -54 -118 -12 8 -42 -99 -12 58 26 -97 -17 -71
000010 f2 e2 54 e8 51 1a 2e f1 13 00 93 36 e4 0e 0d 08
       -14 -30 84 -24 81 26 46 -15 19 0 -109 54 -28 14 13 8
000020 16 e2 04 00 e0 18 0c 81 fc 1b 1a e8 50 de ea fc
       22 -30 4 0 -32 24 12 -127 -4 27 26 -24 80 -34 -22 -4
000030 2e ec 54 f1 dd fe c0 fd 24 0c d9 0e d5 df e9 c7
       46 -20 84 -15 -35 -2 -64 -3 36 12 -39 14 -43 -33 -23 -57
000040 14 b5 08 e0 67 3c 32 d7 2f 05 6b 95 e1 e2 2f fd
       20 -75 8 -32 103 60 50 -41 47 5 107 -107 -31 -30 47 -3
000050 81 d3 b5 50 66 06 0a f7 de ed 32 24 75 f1 f2 33
       -127 -45 -75 80 102 6 10 -9 -34 -19 50 36 117 -15 -14 51
000060 61 0d d2 03 94 f7 c9 f4 fb 54 fd 62 fb 01 bb ff
       97 13 -46 3 -108 -9 -55 -12 -5 84 -3 98 -5 1 -69 -1
000070 29 2f d0 81 52 b6 31 32 f4 f6 67 da 30 0f 27 d4
       41 47 -48 -127 82 -74 49 50 -12 -10 103 -38 48 15 39 -44
000080 54 e2 3e 3a df e5 6b c1 04 19 19 d4 d3 ae fb 41
       84 -30 62 58 -33 -27 107 -63 4 25 25 -44 -45 -82 -5 65
000090 ef e0 2f cb e5 30 f5 03 ea fa 0e e0 5f 3d cd 35
       -17 -32 47 -53 -27 48 -11 3 -22 -6 14 -32 95 61 -51 53
0000a0 eb e8 6e 12 cc 11 dc eb ff cb a7 06 29 e5 b6 f1
       -21 -24 110 18 -52 17 -36 -21 -1 -53 -89 6 41 -27 -74 -15
0000b0 7f eb 5e b5 cc ff c0 f7 fb e4 19 f3 3b ad f4 66
       127 -21 94 -75 -52 -1 -64 -9 -5 -28 25 -13 59 -83 -12 102
0000c0 db ac 35 78 b2 fa aa 1f cd 12 c8 b8 1a 01 42 f8
       -37 -84 53 120 -78 -6 -86 31 -51 18 -56 -72 26 1 66 -8
0000d0 e0 50 48 aa 0e 02 fc f8 28 f4 0d 2f f1 c5 d0 c8
       -32 80 72 -86 14 2 -4 -8 40 -12 13 47 -15 -59 -48 -56
0000e0 05 ad e4 2e 25 24 e3 32 70 c8 ee 29 04 f0 20 04
       5 -83 -28 46 37 36 -29 50 112 -56 -18 41 4 -16 32 4
0000f0 25 cf 03 25 1b d0 13 1c fe d9 0d 26 0a f4 f7 08
       37 -49 3 37 27 -48 19 28 -2 -39 13 38 10 -12 -9 8

quantize_1/fire5_2Stud_expand_1x1/kernel i1 [97, 1, 1, 24]
000000 29 0e 10 e5 08 c6 12 1a 38 e0 df f1 d6 ca 05 ef
       41 14 16 -27 8 -58 18 26 56 -32 -33 -15 -42 -54 5 -17
000010 7f f2 e5 fc da b2 bd e9 f8 b2 0e 0a 4b 1a d4 0d
       127 -14 -27 -4 -38 -78 -67 -23 -8 -78 14 10 75 26 -44 13
000020 2c e5 e5 fc d0 df fa 45 2c a3 fe 26 1b 0d 81 d6
       44 -27 -27 -4 -48 -33 -6 69 44 -93 -2 38 27 13 -127 -42
000030 d0 c4 1b 20 ed ba 09 7e cf d1 2b 31 46 08 e3 b4
       -48 -60 27 32 -19 -70 9 126 -49 -47 43 49 70 8 -29 -76
000040 cc 2a 81 44 24 cc ba 1f e0 3a f4 da bb b3 01 e4
       -52 42 -127 68 36 -52 -70 31 -32 58 -12 -38 -69 -77 1 -28
000050 28 76 c5 05 fd a3 eb 08 f7 08 f2 a1 1a 81 01 c8
       40 118 -59 5 -3 -93 -21 8 -9 8 -14 -95 26 -127 1 -56
000060 04 1b 30 b6 f1 d9 aa 0d 06 bf 1c ff cd 15 03 e5
       4 27 48 -74 -15 -39 -86 13 6 -65 28 -1 -51 21 3 -27
000070 04 e0 c4 0c 03 27 7f d0 90 25 f7 ec 81 06 08 b4
       4 -32 -60 12 3 39 127 -48 -112 37 -9 -20 -127 6 8 -76
000080 ee b4 48 6a ba 19 07 1d fd 1e b1 2f e4 98 fc fe
       -18 -76 72 106 -70 25 7 29 -3 30 -79 47 -28 -104 -4 -2
000090 1f a5 c3 33 e8 1c 08 c8 a9 1c 42 81 93 5a 08 13
       31 -91 -61 51 -24 28 8 -56 -87 28 66 -127 -109 90 8 19
0000a0 cf ff d2 ed f8 11 06 fd 81 f7 2d d6 03 99 f1 ff
       -49 -1 -46 -19 -8 17 6 -3 -127 -9 45 -42 3 -103 -15 -1
0000b0 e4 45 e7 ff c4 94 56 f7 71 07 18 c4 ab db ee 51
       -28 69 -25 -1 -60 -108 86 -9 113 7 24 -60 -85 -37 -18 81
0000c0 7c d0 35 12 f7 d7 20 e7 93 6d 81 03 ce 28 ea ae
       124 -48 53 18 -9 -41 32 -25 -109 109 -127 3 -50 40 -22 -82
0000d0 03 72 de ac b1 b6 fe e3 f3 dd d6 3d 81 ec 4d 03
       3 114 -34 -84 -79 -74 -2 -29 -13 -35 -42 61 -127 -20 77 3
0000e0 0d e6 e5 2e cf f7 dc b5 35 d7 23 b8 34 fe fb d4
       13 -26 -27 46 -49 -9 -36 -75 53 -41 35 -72 52 -2 -5 -44
0000f0 37 02 b8 e4 4e e5 2b ec fe fc 19 2e 00 fb 21 81
       55 2 -72 -28 78 -27 43 -20 -2 -4 25 46 0 -5 33 -127

quantize_1/fire5_2Stud_expand_3x3/kernel i1 [75, 3, 3, 24]
000000 dd 14 38 46 ce 05 1e d0 fc 3c 1c 2b f0 ef 30 c5
       -35 20 56 70 -50 5 30 -48 -4 60 28 43 -16 -17 48 -59
000010 1f 4f af e1 05 4c 0d e7 0b 10 e0 dc 21 d4 3a 2d
       31 79 -81 -31 5 76 13 -25 11 16 -32 -36 33 -44 58 45
000020 03 19 0d dc 18 19 d8 fd d8 dd 16 f0 1c 07 12 f3
       3 25 13 -36 24 25 -40 -3 -40 -35 22 -16 28 7 18 -13
000030 09 fa 01 eb 38 da ff 02 20 30 13 f1 1c 30 f9 f1
       9 -6 1 -21 56 -38 -1 2 32 48 19 -15 28 48 -7 -15
000040 22 f7 fa dc fb f2 1f f6 ed e4 0d 48 54 ed 81 c1
       34 -9 -6 -36 -5 -14 31 -10 -19 -28 13 72 84 -19 -127 -63
000050 58 19 e3 76 20 15 cb d3 44 34 cb e4 d6 d2 03 3b
       88 25 -29 118 32 21 -53 -45 68 52 -53 -28 -42 -46 3 59
000060 1a 2f db ed 36 5d 07 4b c7 be e4 93 34 43 fb d3
       26 47 -37 -19 54 93 7 75 -57 -66 -28 -109 52 67 -5 -45
000070 a4 d9 10 06 c5 fd fd 16 0e 38 eb 10 da c2 02 15
       -92 -39 16 6 -59 -3 -3 22 14 56 -21 16 -38 -62 2 21
000080 bb b9 00 b1 30 f9 27 d6 e4 fc ed 0d ce 08 e4 09
       -69 -71 0 -79 48 -7 39 -42 -28 -4 -19 13 -50 8 -28 9
000090 11 e6 02 f2 eb f6 04 f3 46 08 f3 2b ef 18 df ad
       17 -26 2 -14 -21 -10 4 -13 70 8 -13 43 -17 24 -33 -83
0000a0 27 bb 20 e5 03 04 fd 2c 0a 34 f2 d8 d9 1a 08 f6
       39 -69 32 -27 3 4 -3 44 10 52 -14 -40 -39 26 8 -10
0000b0 f5 10 1e c9 b5 fe 1b db ff 13 08 03 1a fe ee c0
       -11 16 30 -55 -75 -2 27 -37 -1 19 8 3 26 -2 -18 -64
0000c0 eb 20 fe 1a 1a 00 de d1 1a 0a 17 0a f9 ea f9 d5
       -21 32 -2 26 26 0 -34 -47 26 10 23 10 -7 -22 -7 -43
0000d0 1c 24 01 07 09 14 e0 f0 f7 00 10 fd 0e 1c 11 27
       28 36 1 7 9 20 -32 -16 -9 0 16 -3 14 28 17 39
0000e0 fe 00 0a ef e4 a9 4a 34 02 03 e0 2f ed e5 16 f5
       -2 0 10 -17 -28 -87 74 52 2 3 -32 47 -19 -27 22 -11
0000f0 18 f5 e3 1a f4 3a 14 0b f5 d2 1f 0c ea ee 38 2c
       24 -11 -29 26 -12 58 20 11 -11 -46 31 12 -22 -18 56 44

quantize_1/fire5_2Stud_squeeze/kernel i1 [24, 1, 1, 116]
000000 1c 52 f5 49 fc 47 e0 e5 ba 23 b9 eb c7 3c 10 98
       28 82 -11 73 -4 71 -32 -27 -70 35 -71 -21 -57 60 16 -104
000010 fd e7 2e c0 f7 2e 12 41 7f 1d f5 44 1b df fd 5c
       -3 -25 46 -64 -9 46 18 65 127 29 -11 68 27 -33 -3 92
000020 24 19 17 1c fc 0d 24 d5 39 0d c2 05 be 0f 32 f4
       36 25 23 28 -4 13 36 -43 57 13 -62 5 -66 15 50 -12
000030 df 76 d2 02 ed fe 00 39 2d 03 fd 17 9c 17 f6 2d
       -33 118 -46 2 -19 -2 0 57 45 3 -3 23 -100 23 -10 45
000040 69 1f 1c e5 f8 fd dd 02 f9 cb ea 1f eb 11 e7 06
       105 31 28 -27 -8 -3 -35 2 -7 -53 -22 31 -21 17 -25 6
000050 ee 0c f8 10 fc d5 2b f6 26 f6 3b dc 0b 2f f0 f1
       -18 12 -8 16 -4 -43 43 -10 38 -10 59 -36 11 47 -16 -15
000060 db 59 4f c5 dd e0 12 0e 1c 0e cf e6 df f0 eb ec
       -37 89 79 -59 -35 -32 18 14 28 14 -49 -26 -33 -16 -21 -20
000070 0b 15 1f d2 f0 4e 25 e6 d2 3e fa f3 28 bc 0c f7
       11 21 31 -46 -16 78 37 -26 -46 62 -6 -13 40 -68 12 -9
000080 0e ed b3 2f fa e1 23 ee 81 15 f6 be 8d 00 e7 d0
       14 -19 -77 47 -6 -31 35 -18 -127 21 -10 -66 -115 0 -25 -48
000090 21 04 ca a4 20 c4 2c 02 ee 30 d0 56 0b b1 5a 28
       33 4 -54 -92 32 -60 44 2 -18 48 -48 86 11 -79 90 40
0000a0 55 36 d6 09 f9 0b e5 f8 38 cd 2b fb d4 36 e4 03
       85 54 -42 9 -7 11 -27 -8 56 -51 43 -5 -44 54 -28 3
0000b0 f9 d1 ec f7 f4 ca 1b 2d e3 fd a7 02 41 d9 dc c6
       -7 -47 -20 -9 -12 -54 27 45 -29 -3 -89 2 65 -39 -36 -58
0000c0 0a e7 ec 01 c8 4f 24 36 f1 f9 12 25 17 45 f6 d3
       10 -25 -20 1 -56 79 36 54 -15 -7 18 37 23 69 -10 -45
0000d0 07 f5 2a 14 0d 11 f4 2c 0c 22 0d 0b 5c a8 33 36
       7 -11 42 20 13 17 -12 44 12 34 13 11 92 -88 51 54
0000e0 1e 53 13 ee 30 22 07 0c fc 03 f4 f5 fc d7 ca ef
       30 83 19 -18 48 34 7 12 -4 3 -12 -11 -4 -41 -54 -17
0000f0 26 9a f8 38 a2 60 12 6c 0b 0a 42 06 67 15 d7 c6
       38 -102 -8 56 -94 96 18 108 11 10 66 6 103 21 -41 -58

quantize_1/fire6_2Stud_expand_1x1/kernel i1 [48, 1, 1, 30]
000000 12 3e aa 31 b8 3b f1 17 f4 d5 b5 eb 2b 11 fe e4
       18 62 -86 49 -72 59 -15 23 -12 -43 -75 -21 43 17 -2 -28
000010 ab 39 0e 9f f8 b3 81 e2 ce 24 eb 8f 6f df e9 1b
       -85 57 14 -97 -8 -77 -127 -30 -50 36 -21 -113 111 -33 -23 27
000020 34 23 c4 0c fb 05 1b 10 81 38 ba e9 f7 e9 47 fd
       52 35 -60 12 -5 5 27 16 -127 56 -70 -23 -9 -23 71 -3
000030 24 dc 16 f4 e9 04 e2 dd 2d d9 0b ce a7 5a ea ce
       36 -36 22 -12 -23 4 -30 -35 45 -39 11 -50 -89 90 -22 -50
000040 f8 d4 03 23 93 d2 2e 1b c7 5b 6e f0 51 15 ef e7
       -8 -44 3 35 -109 -46 46 27 -57 91 110 -16 81 21 -17 -25
000050 e1 de e0 f8 55 18 f7 c9 81 5c a2 06 9a 2e 81 0a
       -31 -34 -32 -8 85 24 -9 -55 -127 92 -94 6 -102 46 -127 10
000060 7b 9b 30 cd d7 be c5 dd 52 91 5e 0c 36 56 d2 9b
       123 -101 48 -51 -41 -66 -59 -35 82 -111 94 12 54 86 -46 -101
000070 32 98 15 ae ea d8 48 2e 3e c6 81 20 e6 e7 33 2a
       50 -104 21 -82 -22 -40 72 46 62 -58 -127 32 -26 -25 51 42
000080 de d4 24 50 a9 e2 0b b5 37 32 1c 2f eb b9 0b c7
       -34 -44 36 80 -87 -30 11 -75 55 50 28 47 -21 -71 11 -57
000090 dd c1 f5 db 3d d9 6f 24 c3 03 b2 4f 79 f2 cd f5
       -35 -63 -11 -37 61 -39 111 36 -61 3 -78 79 121 -14 -51 -11
0000a0 81 f1 d5 12 cd 92 0d 36 33 64 b8 eb 33 54 bf aa
       -127 -15 -43 18 -51 -110 13 54 51 100 -72 -21 51 84 -65 -86
0000b0 ea 35 91 12 0d e8 56 1d 04 14 f5 62 06 f2 7f eb
       -22 53 -111 18 13 -24 86 29 4 20 -11 98 6 -14 127 -21
0000c0 aa ad f4 f9 42 1f 3b 30 b9 29 42 21 ef 1a fc 21
       -86 -83 -12 -7 66 31 59 48 -71 41 66 33 -17 26 -4 33
0000d0 ea ad d2 81 02 8a ad e6 a8 ba 60 d5 2a 1a fc fe
       -22 -83 -46 -127 2 -118 -83 -26 -88 -70 96 -43 42 26 -4 -2
0000e0 dd 21 2b 1f fc 1a 00 9c 3e 93 41 64 fe 13 c6 16
       -35 33 43 31 -4 26 0 -100 62 -109 65 100 -2 19 -58 22
0000f0 a7 3c 22 13 f5 e4 f2 d2 de 2c df 09 06 17 04 81
       -89 60 34 19 -11 -28 -14 -46 -34 44 -33 9 6 23 4 -127

quantize_1/fire6_2Stud_expand_3x3/kernel i1 [30, 3, 3, 30]
000000 64 0d 17 f0 19 d3 e1 11 00 f9 e1 09 0f 3b a3 c3
       100 13 23 -16 25 -45 -31 17 0 -7 -31 9 15 59 -93 -61
000010 15 09 cb 1f 24 11 9a 0a bb d3 1f 36 0d f2 30 f3
       21 9 -53 31 36 17 -102 10 -69 -45 31 54 13 -14 48 -13
000020 f0 d9 f2 df f8 0f ff 07 ee 0e 10 11 ca ee 13 18
       -16 -39 -14 -33 -8 15 -1 7 -18 14 16 17 -54 -18 19 24
000030 c2 ea 09 0f d6 15 e7 bb f5 0c 01 fe 12 e6 fe e4
       -62 -22 9 15 -42 21 -25 -69 -11 12 1 -2 18 -26 -2 -28
000040 08 99 db f7 09 03 c2 ea ed 32 98 17 11 3a e0 ec
       8 -103 -37 -9 9 3 -62 -22 -19 50 -104 23 17 58 -32 -20
000050 24 01 88 16 2c bf db 39 fb fb 1d ec c8 ec 0c 0c
       36 1 -120 22 44 -65 -37 57 -5 -5 29 -20 -56 -20 12 12
000060 25 21 01 f3 ff 10 fc 21 1a ca 05 12 f5 fb 0a d4
       37 33 1 -13 -1 16 -4 33 26 -54 5 18 -11 -5 10 -44
000070 f3 e3 06 19 d8 3d 0b 1e 0e 08 01 03 db 07 18 dd
       -13 -29 6 25 -40 61 11 30 14 8 1 3 -37 7 24 -35
000080 f2 f4 0c 1f 0f ed 0e 18 d1 29 e9 ec ea f1 33 16
       -14 -12 12 31 15 -19 14 24 -47 41 -23 -20 -22 -15 51 22
000090 11 27 dc 2e 12 01 24 21 e8 e0 2a 19 18 fb 01 f3
       17 39 -36 46 18 1 36 33 -24 -32 42 25 24 -5 1 -13
0000a0 c9 f9 04 ed f9 f7 d9 10 16 d5 e2 c2 0c e9 0b 4d
       -55 -7 4 -19 -7 -9 -39 16 22 -43 -30 -62 12 -23 11 77
0000b0 dc 18 20 14 21 12 e3 c5 f8 3d 13 48 1a 09 1d e3
       -36 24 32 20 33 18 -29 -59 -8 61 19 72 26 9 29 -29
0000c0 cf 30 2b cb 33 f4 bc 0e 20 97 e7 92 0c 3d da d8
       -49 48 43 -53 51 -12 -68 14 32 -105 -25 -110 12 61 -38 -40
0000d0 15 08 09 fe ea ee fc 23 ed 14 07 03 28 02 db 06
       21 8 9 -2 -22 -18 -4 35 -19 20 7 3 40 2 -37 6
0000e0 f5 f4 14 22 d2 fe 22 c4 2a cc 09 25 0c f9 01 f9
       -11 -12 20 34 -46 -2 34 -60 42 -52 9 37 12 -7 1 -7
0000f0 23 09 b9 15 f4 3a 03 23 10 1e 19 ea c8 fc fa cf
       35 9 -71 21 -12 58 3 35 16 30 25 -22 -56 -4 -6 -49

quantize_1/fire6_2Stud_squeeze/kernel i1 [30, 1, 1, 172]
000000 39 ff ce f0 48 cd 19 cc 0d 03 f8 d8 2f cd 09 ce
       57 -1 -50 -16 72 -51 25 -52 13 3 -8 -40 47 -51 9 -50
000010 4d e7 10 d6 ff bb cc 0f e6 f3 09 ff 3a 17 10 18
       77 -25 16 -42 -1 -69 -52 15 -26 -13 9 -1 58 23 16 24
000020 fa 34 dd c9 fe 16 ef 02 1c 52 ef f7 05 d8 1b 13
       -6 52 -35 -55 -2 22 -17 2 28 82 -17 -9 5 -40 27 19
000030 f1 4a b3 f9 e0 36 23 36 1d e8 c8 e7 0c 15 1d 13
       -15 74 -77 -7 -32 54 35 54 29 -24 -56 -25 12 21 29 19
000040 81 e7 10 f4 24 18 f6 2e 13 c3 10 f3 36 dc ce 17
       -127 -25 16 -12 36 24 -10 46 19 -61 16 -13 54 -36 -50 23
000050 12 ec 5f df 3d f2 28 b6 c9 0a f3 cb f3 ba 15 e6
       18 -20 95 -33 61 -14 40 -74 -55 10 -13 -53 -13 -70 21 -26
000060 1b 02 0a c2 be f3 23 35 d3 0c 29 f8 3c ff c6 01
       27 2 10 -62 -66 -13 35 53 -45 12 41 -8 60 -1 -58 1
000070 e9 d2 34 ee 0a f9 d8 ca 3d 2b 20 28 ed 17 e7 47
       -23 -46 52 -18 10 -7 -40 -54 61 43 32 40 -19 23 -25 71
000080 06 1c f1 e7 e8 5a 02 c2 26 e8 23 55 fa ee 05 d0
       6 28 -15 -25 -24 90 2 -62 38 -24 35 85 -6 -18 5 -48
000090 dd 08 e7 03 3a 1b f8 b7 52 d7 d0 e9 ea d8 ff db
       -35 8 -25 3 58 27 -8 -73 82 -41 -48 -23 -22 -40 -1 -37
0000a0 c8 0a f4 41 f1 eb d9 cf 03 14 ec 92 e1 2e f9 f8
       -56 10 -12 65 -15 -21 -39 -49 3 20 -20 -110 -31 46 -7 -8
0000b0 05 e1 01 11 ee fe 19 01 0a d3 32 28 02 03 09 f9
       5 -31 1 17 -18 -2 25 1 10 -45 50 40 2 3 9 -7
0000c0 d7 0c 0e f6 e7 cd e2 18 ff 1f 08 2e 19 1e 08 02
       -41 12 14 -10 -25 -51 -30 24 -1 31 8 46 25 30 8 2
0000d0 ca 18 4c a1 c6 68 e3 9f fb da f2 27 14 f6 18 2c
       -54 24 76 -95 -58 104 -29 -97 -5 -38 -14 39 20 -10 24 44
0000e0 f1 2e eb 3b fb fe d4 e9 1d 04 06 f2 7f f3 ec eb
       -15 46 -21 59 -5 -2 -44 -23 29 4 6 -14 127 -13 -20 -21
0000f0 df f6 09 c2 15 25 11 f9 1b 25 0c d9 d6 f2 fe 03
       -33 -10 9 -62 21 37 17 -7 27 37 12 -39 -42 -14 -2 3

quantize_1/resnet_v2_50/conv1_ignore/weights i1 [64, 3, 3, 3]
000000 c0 11 47 b3 09 3a b7 12 48 9e fb 71 81 01 5b 90
       -64 17 71 -77 9 58 -73 18 72 -98 -5 113 -127 1 91 -112
000010 02 69 c0 08 4b ab f8 4e bc fb 33 c1 e9 3a 95 ef
       2 105 -64 8 75 -85 -8 78 -68 -5 51 -63 -23 58 -107 -17
000020 7f c1 f4 67 b7 ec 4c 8b eb 78 b5 f7 6b c6 00 5b
       127 -63 -12 103 -73 -20 76 -117 -21 120 -75 -9 107 -58 0 91
000030 a2 f2 7b b9 fc 55 d0 c1 df ba 8d 9b ed c8 b1 b0
       -94 -14 123 -71 -4 85 -48 -63 -33 -70 -115 -101 -19 -56 -79 -80
000040 81 81 e2 92 a1 ff f8 f4 c4 8e d3 e8 03 0d f4 fa
       -127 -127 -30 -110 -95 -1 -8 -12 -60 -114 -45 -24 3 13 -12 -6
000050 11 ff c1 29 05 aa 39 d3 b4 56 10 c0 3a e8 ae 5f
       17 -1 -63 41 5 -86 57 -45 -76 86 16 -64 58 -24 -82 95
000060 c9 c4 7f ec bc 25 ed c1 59 e2 a0 5c 08 c6 b9 16
       -55 -60 127 -20 -68 37 -19 -63 89 -30 -96 92 8 -58 -71 22
000070 d4 ae 49 20 0f 07 b1 93 52 05 c9 7f 61 2d 07 d5
       -44 -82 73 32 15 7 -79 -109 82 5 -55 127 97 45 7 -43
000080 bb 5a 2b 0f 60 35 1a e0 a5 d9 f5 95 aa 03 ca e0
       -69 90 43 15 96 53 26 -32 -91 -39 -11 -107 -86 3 -54 -32
000090 e3 81 fc b4 83 98 ef bc af f3 ee e8 b5 90 a9 aa
       -29 -127 -4 -76 -125 -104 -17 -68 -81 -13 -18 -24 -75 -112 -87 -86
0000a0 8a 97 9d c5 c9 a9 fa da b6 e5 0a 81 ae e3 9e db
       -118 -105 -99 -59 -55 -87 -6 -38 -74 -27 10 -127 -82 -29 -98 -37
0000b0 ea a9 b6 c8 ba d5 ee d1 e4 16 9c e8 eb 28 13 12
       -22 -87 -74 -56 -70 -43 -18 -47 -28 22 -100 -24 -21 40 19 18
0000c0 b9 92 a7 ea e9 fe e8 cc d1 be a3 ba 31 37 32 e7
       -71 -110 -89 -22 -23 -2 -24 -52 -47 -66 -93 -70 49 55 50 -25
0000d0 df ed 16 1b 1a 64 7f 75 f8 f7 04 d9 af eb da 9f
       -33 -19 22 27 26 100 127 117 -8 -9 4 -39 -81 -21 -38 -97
0000e0 e0 ea c4 f2 e6 81 d9 04 ba f3 03 d2 04 1f f0 27
       -32 -22 -60 -14 -26 -127 -39 4 -70 -13 3 -46 4 31 -16 39
0000f0 43 2f 48 2c 45 38 28 4c 30 31 47 2c 52 7e 49 4a
       67 47 72 44 69 56 40 76 48 49 71 44 82 126 73 74

quantize_1/stride/Conv_16_1_tl/kernel i1 [12, 1, 1, 12]
000000 1a 0b 30 17 d5 e6 c9 81 d4 f1 22 ff 7f 1c dc dd
       26 11 48 23 -43 -26 -55 -127 -44 -15 34 -1 127 28 -36 -35
000010 64 5c 74 e5 40 5a 12 2a f6 fc 65 eb 7f 20 b9 14
       100 92 116 -27 64 90 18 42 -10 -4 101 -21 127 32 -71 20
000020 ca 07 fd 28 81 eb 11 ee f6 fe 20 0d 10 f8 ec 02
       -54 7 -3 40 -127 -21 17 -18 -10 -2 32 13 16 -8 -20 2
000030 fd f2 08 15 63 35 e8 d4 81 66 fb 46 0a a9 18 9c
       -3 -14 8 21 99 53 -24 -44 -127 102 -5 70 10 -87 24 -100
000040 c9 81 d3 52 11 ea 9e 0a f4 f9 c0 f3 81 0a 00 01
       -55 -127 -45 82 17 -22 -98 10 -12 -7 -64 -13 -127 10 0 1
000050 f4 fb fe a7 ac e0 ea 28 87 02 be 98 c7 09 81 c9
       -12 -5 -2 -89 -84 -32 -22 40 -121 2 -66 -104 -57 9 -127 -55
000060 48 49 28 81 0b cb f5 0e f6 1b ad c7 ca 25 81 29
       72 73 40 -127 11 -53 -11 14 -10 27 -83 -57 -54 37 -127 41
000070 24 ee dd e4 21 21 28 01 0a fd df f7 81 ff fb 01
       36 -18 -35 -28 33 33 40 1 10 -3 -33 -9 -127 -1 -5 1
000080 f8 fc fb 94 81 c5 eb 56 20 00 26 c9 f9 a0 57 31
       -8 -4 -5 -108 -127 -59 -21 86 32 0 38 -55 -7 -96 87 49

quantize_1/stride/Conv_16_3_tl/kernel i1 [25, 3, 3, 38]
000000 ae ea 0c 29 f0 3c c3 6b bb 19 5d 20 f3 7f 32 f6
       -82 -22 12 41 -16 60 -61 107 -69 25 93 32 -13 127 50 -10
000010 f7 e7 e5 47 2c d5 ea c1 e3 7e 1f 9e 0b e7 34 4f
       -9 -25 -27 71 44 -43 -22 -63 -29 126 31 -98 11 -25 52 79
000020 b2 d5 d2 14 7a e4 e8 03 23 20 10 58 af 14 e1 20
       -78 -43 -46 20 122 -28 -24 3 35 32 16 88 -81 20 -31 32
000030 32 02 fd 37 08 de e5 06 d8 07 31 12 fa dc e9 2c
       50 2 -3 55 8 -34 -27 6 -40 7 49 18 -6 -36 -23 44
000040 e4 ca ea 2b f4 21 f2 3f ce 1a 34 05 e6 1e 14 32
       -28 -54 -22 43 -12 33 -14 63 -50 26 52 5 -26 30 20 50
000050 f0 3a f2 e3 e5 e7 30 03 fa 46 1a dd 06 07 ca f6
       -16 58 -14 -29 -27 -25 48 3 -6 70 26 -35 6 7 -54 -10
000060 30 2d f7 04 f4 02 fd cd e7 27 21 01 f9 02 f8 0a
       48 45 -9 4 -12 2 -3 -51 -25 39 33 1 -7 2 -8 10
000070 49 21 cf cf 30 0b 07 1f 0e 01 3f e2 f5 fa 1e 16
       73 33 -49 -49 48 11 7 31 14 1 63 -30 -11 -6 30 22
000080 52 ae 1d e3 24 1b e1 da d9 d5 d0 6b 17 bc 13 0f
       82 -82 29 -29 36 27 -31 -38 -39 -43 -48 107 23 -68 19 15
000090 e0 e5 ea 06 01 e2 05 f0 e6 e2 0e 01 fc 29 f1 fc
       -32 -27 -22 6 1 -30 5 -16 -26 -30 14 1 -4 41 -15 -4
0000a0 ea 1d 10 ea 14 19 03 ad 3c fb 2a 09 25 01 e6 f1
       -22 29 16 -22 20 25 3 -83 60 -5 42 9 37 1 -26 -15
0000b0 e3 01 27 e8 fa 10 fc fd ee 1a fc 1e 1e 21 08 fe
       -29 1 39 -24 -6 16 -4 -3 -18 26 -4 30 30 33 8 -2
0000c0 f8 12 be ef 27 9f 04 21 02 e9 16 30 01 bc 31 0a
       -8 18 -66 -17 39 -97 4 33 2 -23 22 48 1 -68 49 10
0000d0 e8 da fa fe 2d 27 00 f3 4f 00 f7 1b 00 dc 0f 14
       -24 -38 -6 -2 45 39 0 -13 79 0 -9 27 0 -36 15 20
0000e0 07 19 f3 12 b9 c6 f6 1d fd e5 ee 33 12 07 1c f9
       7 25 -13 18 -71 -58 -10 29 -3 -27 -18 51 18 7 28 -7
0000f0 2c eb 0c 09 26 b5 46 09 ce 13 12 f0 d4 3a 18 f8
       44 -21 12 9 38 -75 70 9 -50 19 18 -16 -44 58 24 -8

quantize_1/stride/Conv_dws_cls/depthwise_kernel i1 [1, 3, 3, 28]
000000 e4 7f b9 64 81 4c 73 7f e5 14 7f e9 23 ba d6 b2
       -28 127 -71 100 -127 76 115 127 -27 20 127 -23 35 -70 -42 -78
000010 10 12 3a 1f 0c 4e f6 79 40 a6 57 63 e7 1b 81 60
       16 18 58 31 12 78 -10 121 64 -90 87 99 -25 27 -127 96
000020 e5 2d 20 54 ea a4 f2 de 3d 8c 60 2d 81 81 51 50
       -27 45 32 84 -22 -92 -14 -34 61 -116 96 45 -127 -127 81 80
000030 a5 39 7f cb ff 06 6c 8b a4 88 d9 67 e6 3d 28 59
       -91 57 127 -53 -1 6 108 -117 -92 -120 -39 103 -26 61 40 89
000040 dd e3 ea a9 7f a5 01 81 6b 0d 25 1a aa 51 3f 8c
       -35 -29 -22 -87 127 -91 1 -127 107 13 37 26 -86 81 63 -116
000050 51 9e 2a f8 ba fc cd 64 d1 7f 7f 77 6e b0 f3 81
       81 -98 42 -8 -70 -4 -51 100 -47 127 127 119 110 -80 -13 -127
000060 40 97 74 2b 28 e6 73 4d b4 4d e3 5c 0d b5 3d 65
       64 -105 116 43 40 -26 115 77 -76 77 -29 92 13 -75 61 101
000070 81 07 ad 15 2b 68 0e 46 77 81 a2 02 14 ef 7f 3e
       -127 7 -83 21 43 104 14 70 119 -127 -94 2 20 -17 127 62
000080 b2 a5 7f 7f 81 73 24 eb f5 de 7f b0 ea d7 00 41
       -78 -91 127 127 -127 115 36 -21 -11 -34 127 -80 -22 -41 0 65
000090 4a 64 37 65 7f c3 c8 96 47 81 63 1e 3f d9 70 4b
       74 100 55 101 127 -61 -56 -106 71 -127 99 30 63 -39 112 75
0000a0 b3 7f fd b0 2c b1 35 30 b9 96 da 7f ef bf 4d 25
       -77 127 -3 -80 44 -79 53 48 -71 -106 -38 127 -17 -65 77 37
0000b0 5b db 7d a3 42 96 04 94 33 0a 3a 2f c7 26 24 7f
       91 -37 125 -93 66 -106 4 -108 51 10 58 47 -57 38 36 127
0000c0 22 a5 1c 58 d5 0f 96 6f 32 b3 10 5a 6f b0 ea c1
       34 -91 28 88 -43 15 -106 111 50 -77 16 90 111 -80 -22 -63
0000d0 4e a4 4a 2e 85 b7 6d 55 ac 63 52 1f 20 e7 4b 81
       78 -92 74 46 -123 -73 109 85 -84 99 82 31 32 -25 75 -127
0000e0 dd 60 e7 56 52 b1 1d 4d 6c 1a d3 14 34 92 ee 8c
       -35 96 -25 86 82 -79 29 77 108 26 -45 20 52 -110 -18 -116
0000f0 51 f8 2f 41 db 4f 38 8a 7f 81 44 f8
       81 -8 47 65 -37 79 56 -118 127 -127 68 -8

quantize_1/stride/Conv_dws_cls/pointwise_kernel i1 [12, 1, 1, 28]
000000 1c c6 ec f1 fb ef e9 1c 09 cf 0e 27 ef 06 21 f2
       28 -58 -20 -15 -5 -17 -23 28 9 -49 14 39 -17 6 33 -14
000010 7a 7f 0d 12 05 12 de 22 a8 41 2b d3 2d e9 06 df
       122 127 13 18 5 18 -34 34 -88 65 43 -45 45 -23 6 -33
000020 1d 17 70 d0 c6 db da ba 2b 0c 09 e2 00 7f f3 39
       29 23 112 -48 -58 -37 -38 -70 43 12 9 -30 0 127 -13 57
000030 02 bd f3 2b d4 ef e7 fa 3a ef ec 8f 1b c5 0f 15
       2 -67 -13 43 -44 -17 -25 -6 58 -17 -20 -113 27 -59 15 21
000040 50 f9 fb e3 bf 7f 46 ff fa e3 b0 1e 0a 1c 30 08
       80 -7 -5 -29 -65 127 70 -1 -6 -29 -80 30 10 28 48 8
000050 07 ec fa 05 34 2e 5f d7 13 cb 02 2a 2c 8c 2e b9
       7 -20 -6 5 52 46 95 -41 19 -53 2 42 44 -116 46 -71
000060 fa 5e 06 d8 08 81 02 07 d1 0b de ce 54 58 2a 0f
       -6 94 6 -40 8 -127 2 7 -47 11 -34 -50 84 88 42 15
000070 2c 26 31 e1 21 93 05 14 75 b6 0a a7 36 7f 16 bf
       44 38 49 -31 33 -109 5 20 117 -74 10 -89 54 127 22 -65
000080 fa fc cd 53 44 0a 2e f1 0d de 11 1a f6 d3 a5 f6
       -6 -4 -51 83 68 10 46 -15 13 -34 17 26 -10 -45 -91 -10
000090 f9 3f b9 1e aa 37 09 df 41 a3 f2 19 f8 81 eb bc
       -7 63 -71 30 -86 55 9 -33 65 -93 -14 25 -8 -127 -21 -68
0000a0 0a 55 08 13 0a d0 27 cf 00 fa cd fb e5 d2 4e 2f
       10 85 8 19 10 -48 39 -49 0 -6 -51 -5 -27 -46 78 47
0000b0 8b 8f 00 97 7f c2 c0 6d d8 07 2c d9 83 fc 30 fe
       -117 -113 0 -105 127 -62 -64 109 -40 7 44 -39 -125 -4 48 -2
0000c0 3e 47 a1 f6 d2 e9 e0 15 f2 7f 20 d3 d8 22 ec 2f
       62 71 -95 -10 -46 -23 -32 21 -14 127 32 -45 -40 34 -20 47
0000d0 0c a7 e6 30 27 26 18 ec 1a cf 3f 19 da 21 49 dc
       12 -89 -26 48 39 38 24 -20 26 -49 63 25 -38 33 73 -36
0000e0 4e ec 3b 25 f7 58 3f 3f d8 ee 0b da 7f bc c4 08
       78 -20 59 37 -9 88 63 63 -40 -18 11 -38 127 -68 -60 8
0000f0 00 b9 e4 05 c3 ed 58 01 f5 1b e3 f4 11 fb c1 17
       0 -71 -28 5 -61 -19 88 1 -11 27 -29 -12 17 -5 -63 23

quantize_1/stride/Conv_mimic_upconv/kernel i1 [28, 1, 1, 89]
000000 03 0e f3 18 ec 06 f9 f9 2e 15 ea fa f5 0b 0a 1c
       3 14 -13 24 -20 6 -7 -7 46 21 -22 -6 -11 11 10 28
000010 05 0b fe ff f6 fa 03 09 18 21 0d 1f 0b 1f 29 25
       5 11 -2 -1 -10 -6 3 9 24 33 13 31 11 31 41 37
000020 0e 17 18 26 1a ff 09 0f 0f 0d d8 11 12 fb fc fe
       14 23 24 38 26 -1 9 15 15 13 -40 17 18 -5 -4 -2
000030 e8 0c 04 0d fd 90 eb fa d8 fd ea fd 1e f3 15 ee
       -24 12 4 13 -3 -112 -21 -6 -40 -3 -22 -3 30 -13 21 -18
000040 f9 fc fe ff 7f 04 1c 17 64 ec 23 18 1a 08 1f bb
       -7 -4 -2 -1 127 4 28 23 100 -20 35 24 26 8 31 -69
000050 fa b3 0c 01 10 e0 0f 3e fb fe 02 fd 00 02 fe 06
       -6 -77 12 1 16 -32 15 62 -5 -2 2 -3 0 2 -2 6
000060 fd ff 01 fd fe 01 01 ff 03 00 01 ff ff 00 ff fe
       -3 -1 1 -3 -2 1 1 -1 3 0 1 -1 -1 0 -1 -2
000070 ff fe df d1 4f f6 12 ff f8 34 ee ca f2 01 04 38
       -1 -2 -33 -47 79 -10 18 -1 -8 52 -18 -54 -14 1 4 56
000080 ba 13 11 09 70 17 b2 d8 0e ee e7 de 28 02 db c3
       -70 19 17 9 112 23 -78 -40 14 -18 -25 -34 40 2 -37 -61
000090 02 1f e3 2f 2f d1 f4 ee f9 1b 33 0f e1 cf 00 1b
       2 31 -29 47 47 -47 -12 -18 -7 27 51 15 -31 -49 0 27
0000a0 2b b3 d7 81 14 b9 e1 9e ed c3 4d d8 be 27 20 5a
       43 -77 -41 -127 20 -71 -31 -98 -19 -61 77 -40 -66 39 32 90
0000b0 ed 25 06 fd fb fb ef 07 0f ea 01 f9 fd 0d 06 0e
       -19 37 6 -3 -5 -5 -17 7 15 -22 1 -7 -3 13 6 14
0000c0 f6 f9 fa 0c 0e 08 fd ea fc 07 d4 d0 fa fc fb d9
       -10 -7 -6 12 14 8 -3 -22 -4 7 -44 -48 -6 -4 -5 -39
0000d0 e9 fd 10 dd 00 f8 f9 d6 c3 dd 11 14 fd ea ee 0d
       -23 -3 16 -35 0 -8 -7 -42 -61 -35 17 20 -3 -22 -18 13
0000e0 e7 e8 04 d5 ed e8 fc d4 b1 ff 0a b9 d0 0f f3 9c
       -25 -24 4 -43 -19 -24 -4 -44 -79 -1 10 -71 -48 15 -13 -100
0000f0 15 ef f7 05 b9 0a d1 fe 0b f0 fa ac 04 ed d7 e4
       21 -17 -9 5 -71 10 -47 -2 11 -16 -6 -84 4 -19 -41 -28

quantize_1/stride/Convatrous_conv/kernel i1 [28, 3, 3, 78]
000000 07 04 21 48 11 30 f4 0d f3 0d ef 0a fa 23 27 fd
       7 4 33 72 17 48 -12 13 -13 13 -17 10 -6 35 39 -3
000010 29 dd d0 eb d9 dc e3 06 d1 05 ff e3 0b 03 dd 04
       41 -35 -48 -21 -39 -36 -29 6 -47 5 -1 -29 11 3 -35 4
000020 11 e8 17 f4 10 0b 15 fa 08 22 20 fd 1a 33 09 eb
       17 -24 23 -12 16 11 21 -6 8 34 32 -3 26 51 9 -21
000030 e0 f2 1b f8 cd e7 19 fa fe e7 fb 09 08 e5 17 df
       -32 -14 27 -8 -51 -25 25 -6 -2 -25 -5 9 8 -27 23 -33
000040 dd 01 01 12 07 03 f1 13 1f db 0b fc 18 fd f1 16
       -35 1 1 18 7 3 -15 19 31 -37 11 -4 24 -3 -15 22
000050 d5 f6 15 08 17 16 0b 16 d9 05 f4 06 1f 2b ed d2
       -43 -10 21 8 23 22 11 22 -39 5 -12 6 31 43 -19 -46
000060 c9 e0 f4 c0 ee c7 d8 15 e4 f1 1c 09 c8 da 1a 06
       -55 -32 -12 -64 -18 -57 -40 21 -28 -15 28 9 -56 -38 26 6
000070 38 ef 20 ec 17 f4 06 02 23 1f 7f 12 04 04 1a da
       56 -17 32 -20 23 -12 6 2 35 31 127 18 4 4 26 -38
000080 0a 19 c1 22 13 f7 2c 03 02 e7 ff 0c 14 df ff f6
       10 25 -63 34 19 -9 44 3 2 -25 -1 12 20 -33 -1 -10
000090 fd fd 15 fc f4 fd 01 cc f1 ee 1e 2c 21 05 16 f9
       -3 -3 21 -4 -12 -3 1 -52 -15 -18 30 44 33 5 22 -7
0000a0 2c 04 f7 f7 03 12 d7 10 08 06 2f f6 16 c1 e3 1b
       44 4 -9 -9 3 18 -41 16 8 6 47 -10 22 -63 -29 27
0000b0 e7 e6 ea c8 e4 ff 19 f0 ef f2 0b fa 0d 00 25 fc
       -25 -26 -22 -56 -28 -1 25 -16 -17 -14 11 -6 13 0 37 -4
0000c0 14 ef 15 fe 15 ee 14 0a 2d 11 f2 19 f2 fb ee fd
       20 -17 21 -2 21 -18 20 10 45 17 -14 25 -14 -5 -18 -3
0000d0 01 2a 10 e7 06 03 01 f3 f9 02 fe ec 18 f3 fa 1c
       1 42 16 -25 6 3 1 -13 -7 2 -2 -20 24 -13 -6 28
0000e0 14 07 d4 fe 0d d3 ec fe 16 0a f6 fe 29 00 12 18
       20 7 -44 -2 13 -45 -20 -2 22 10 -10 -2 41 0 18 24
0000f0 16 42 04 17 21 b0 2b 31 39 00 2a f2 04 df 06 13
       22 66 4 23 33 -80 43 49 57 0 42 -14 4 -33 6 19

quantize_1/stride/ConvconvLast_TL/kernel i1 [2, 1, 1, 12]
000000 27 a8 68 07 9d 81 b1 26 b6 fa 2d 70 16 1a 47 06
       39 -88 104 7 -99 -127 -79 38 -74 -6 45 112 22 26 71 6
000010 c2 f7 e9 7f 2c 11 b2 c0
       -62 -9 -23 127 44 17 -78 -64

quantize_1/stride/_upconv_depthwise17/kernel i1 [38, 1, 1, 53]
000000 a5 db bb e4 7f 0c 36 78 b1 32 28 3b 17 77 cf 44
       -91 -37 -69 -28 127 12 54 120 -79 50 40 59 23 119 -49 68
000010 f0 33 da 05 b3 42 40 8d 0e e2 f2 27 cc bd 11 31
       -16 51 -38 5 -77 66 64 -115 14 -30 -14 39 -52 -67 17 49
000020 5f c8 d6 fa aa 84 02 00 57 a8 39 24 4f 13 e3 5a
       95 -56 -42 -6 -86 -124 2 0 87 -88 57 36 79 19 -29 90
000030 d2 47 4d d5 4e 9d e9 fc 32 d1 33 4c ce 32 ea ec
       -46 71 77 -43 78 -99 -23 -4 50 -47 51 76 -50 50 -22 -20
000040 50 f4 22 02 1a ff 2b f1 09 62 18 d1 25 39 cb fc
       80 -12 34 2 26 -1 43 -15 9 98 24 -47 37 57 -53 -4
000050 a4 44 23 29 37 d1 7f 15 ed 1f 62 9b 06 75 f4 e8
       -92 68 35 41 55 -47 127 21 -19 31 98 -101 6 117 -12 -24
000060 32 da ea ae bb 0f f3 47 50 f1 28 20 0a e1 08 cc
       50 -38 -22 -82 -69 15 -13 71 80 -15 40 32 10 -31 8 -52
000070 63 c6 33 1a 10 20 b4 21 5a 3d 29 df da 6b 44 b4
       99 -58 51 26 16 32 -76 33 90 61 41 -33 -38 107 68 -76
000080 c3 fa 6e ba ff ef 1e dc d2 e4 d4 cf 0a f9 c1 fd
       -61 -6 110 -70 -1 -17 30 -36 -46 -28 -44 -49 10 -7 -63 -3
000090 8d a3 50 d0 ed f3 c1 e5 7c e4 ef a2 81 e7 cc 02
       -115 -93 80 -48 -19 -13 -63 -27 124 -28 -17 -94 -127 -25 -52 2
0000a0 fb 13 f9 08 33 ea 15 1c 0b e2 d8 00 d6 f5 13 d8
       -5 19 -7 8 51 -22 21 28 11 -30 -40 0 -42 -11 19 -40
0000b0 ec e8 ee f8 20 f3 fa f7 14 15 f0 2b ef d2 0e ee
       -20 -24 -18 -8 32 -13 -6 -9 20 21 -16 43 -17 -46 14 -18
0000c0 1c e3 40 02 c7 3b ca fc 28 ff 4c 7f 0f ed f7 fc
       28 -29 64 2 -57 59 -54 -4 40 -1 76 127 15 -19 -9 -4
0000d0 22 06 d9 02 f8 d4 1a 1a 47 7f f3 06 15 f6 fe e0
       34 6 -39 2 -8 -44 26 26 71 127 -13 6 21 -10 -2 -32
0000e0 06 b4 ff 0e e2 24 e1 07 f0 ef 39 3d 35 f0 00 29
       6 -76 -1 14 -30 36 -31 7 -16 -17 57 61 53 -16 0 41
0000f0 fd 3b e5 f0 12 49 04 fb 1a 15 15 df f0 eb f2 f6
       -3 59 -27 -16 18 73 4 -5 26 21 21 -33 -16 -21 -14 -10

quantize_1/stride/conv2d_12/kernel i1 [18, 1, 1, 106]
000000 ef 27 14 1c e1 f5 f8 48 1f 37 32 bb d4 ed c3 19
       -17 39 20 28 -31 -11 -8 72 31 55 50 -69 -44 -19 -61 25
000010 e9 0d 1b e8 a7 23 07 e0 0f d7 33 06 df 4f f7 36
       -23 13 27 -24 -89 35 7 -32 15 -41 51 6 -33 79 -9 54
000020 3c ea 0b 04 d3 0a 2e f0 24 60 1e 26 ec 40 19 73
       60 -22 11 4 -45 10 46 -16 36 96 30 38 -20 64 25 115
000030 e3 c0 e6 04 83 11 2a 81 08 25 21 0a fa ef d7 d4
       -29 -64 -26 4 -125 17 42 -127 8 37 33 10 -6 -17 -41 -44
000040 26 c0 03 1d 1d 22 15 0d 23 f7 46 ad d7 04 00 d5
       38 -64 3 29 29 34 21 13 35 -9 70 -83 -41 4 0 -43
000050 02 03 f7 f8 f4 12 10 eb f5 10 d3 4d 0f ff ee f1
       2 3 -9 -8 -12 18 16 -21 -11 16 -45 77 15 -1 -18 -15
000060 dc 06 10 e5 2d ef f9 f6 03 05 21 0a d8 de 09 1a
       -36 6 16 -27 45 -17 -7 -10 3 5 33 10 -40 -34 9 26
000070 c9 07 e4 ca 27 1b 27 d3 cd e3 f8 24 0c 3c fe f3
       -55 7 -28 -54 39 27 39 -45 -51 -29 -8 36 12 60 -2 -13
000080 fa 17 f9 04 f5 13 22 d1 d2 18 29 3a fb e8 81 dd
       -6 23 -7 4 -11 19 34 -47 -46 24 41 58 -5 -24 -127 -35
000090 1b 51 f0 19 fe 27 00 cf a6 c4 e6 c9 ba 2a ef f3
       27 81 -16 25 -2 39 0 -49 -90 -60 -26 -55 -70 42 -17 -13
0000a0 02 fe f0 e3 04 d7 f8 10 4e fc de eb f5 ed fa 1b
       2 -2 -16 -29 4 -41 -8 16 78 -4 -34 -21 -11 -19 -6 27
0000b0 ec ff 4d 10 cb da 17 06 34 09 f9 13 e4 fa e0 f8
       -20 -1 77 16 -53 -38 23 6 52 9 -7 19 -28 -6 -32 -8
0000c0 00 0c f0 0d 1e 03 18 f3 00 fe 41 05 18 f6 24 0c
       0 12 -16 13 30 3 24 -13 0 -2 65 5 24 -10 36 12
0000d0 16 01 1e 22 08 d8 1d 22 f9 ef 0c c7 21 04 20 bc
       22 1 30 34 8 -40 29 34 -7 -17 12 -57 33 4 32 -68
0000e0 cf 19 fc f2 25 f8 0f 44 74 d9 f8 7f f8 0c df 18
       -49 25 -4 -14 37 -8 15 68 116 -39 -8 127 -8 12 -33 24
0000f0 3e 3b ce 02 de ea 0d f2 21 b6 c2 15 e5 de f2 c3
       62 59 -50 2 -34 -22 13 -14 33 -74 -62 21 -27 -34 -14 -61

quantize_1/stride/conv2d_13/kernel i1 [81, 3, 3, 18]
000000 2c b7 f5 0a db d2 c6 f3 22 09 ed ae c4 06 7f c0
       44 -73 -11 10 -37 -46 -58 -13 34 9 -19 -82 -60 6 127 -64
000010 34 4c 12 e1 27 25 02 df c4 39 e0 0b 1c f6 dd 27
       52 76 18 -31 39 37 2 -33 -60 57 -32 11 28 -10 -35 39
000020 2b e7 11 2c d9 ed 09 21 fa 8b da 3b 14 e9 28 e3
       43 -25 17 44 -39 -19 9 33 -6 -117 -38 59 20 -23 40 -29
000030 16 eb 59 05 66 5a 29 3c d9 0d cc 0b f2 03 ff 11
       22 -21 89 5 102 90 41 60 -39 13 -52 11 -14 3 -1 17
000040 f1 da 08 0f 4c 26 11 37 ae 14 20 e1 f7 fc e4 26
       -15 -38 8 15 76 38 17 55 -82 20 32 -31 -9 -4 -28 38
000050 fa 15 fd fb ed 24 ec 28 06 1e c9 2b ea e7 bb c8
       -6 21 -3 -5 -19 36 -20 40 6 30 -55 43 -22 -25 -69 -56
000060 ee 1c 2d ec e3 04 38 0e 0b 29 20 39 19 e2 bd ec
       -18 28 45 -20 -29 4 56 14 11 41 32 57 25 -30 -67 -20
000070 f5 f0 07 c9 ec 1e 06 cc d8 e2 6b 2e 57 19 ee 29
       -11 -16 7 -55 -20 30 6 -52 -40 -30 107 46 87 25 -18 41
000080 f8 f1 f4 24 c0 ec 1c f7 06 c5 fd 0f 2a 4c 3d 39
       -8 -15 -12 36 -64 -20 28 -9 6 -59 -3 15 42 76 61 57
000090 d6 f5 c6 01 dd d4 c6 f3 11 bb d8 c8 10 03 54 4d
       -42 -11 -58 1 -35 -44 -58 -13 17 -69 -40 -56 16 3 84 77
0000a0 20 0e c2 ba 28 13 2d 18 f8 f8 43 19 9a db 3f 31
       32 14 -62 -70 40 19 45 24 -8 -8 67 25 -102 -37 63 49
0000b0 b6 3d 81 9e d9 e6 0e 02 31 18 35 ee f3 ff bc fa
       -74 61 -127 -98 -39 -26 14 2 49 24 53 -18 -13 -1 -68 -6
0000c0 33 e2 e9 22 38 e6 cc a4 0f 09 fe f2 1a de f3 5c
       51 -30 -23 34 56 -26 -52 -92 15 9 -2 -14 26 -34 -13 92
0000d0 c8 90 2a 06 bc 3d 8b bf ed c6 f0 06 1b cc 0f c8
       -56 -112 42 6 -68 61 -117 -65 -19 -58 -16 6 27 -52 15 -56
0000e0 0e e2 ae 2b 31 f1 eb f2 d0 e5 f6 ca 1e 17 e2 df
       14 -30 -82 43 49 -15 -21 -14 -48 -27 -10 -54 30 23 -30 -33
0000f0 f6 cd 15 12 29 2b 1b be 07 1a 24 e4 05 b5 0c d5
       -10 -51 21 18 41 43 27 -66 7 26 36 -28 5 -75 12 -43

quantize_1/stride/conv2d_14/kernel i1 [36, 1, 1, 197]
000000 00 f0 f7 04 02 03 ff fe f9 f7 f9 06 eb 03 ef f3
       0 -16 -9 4 2 3 -1 -2 -7 -9 -7 6 -21 3 -17 -13
000010 01 03 f5 06 02 07 fe fd 0a f1 ed 0d 0c fd 09 e6
       1 3 -11 6 2 7 -2 -3 10 -15 -19 13 12 -3 9 -26
000020 10 03 f3 f8 08 fc 0c 0a 01 fc d6 f9 00 03 f9 eb
       16 3 -13 -8 8 -4 12 10 1 -4 -42 -7 0 3 -7 -21
000030 e8 fe fb 0b 04 fc f7 fc f4 03 08 15 01 f8 f2 fa
       -24 -2 -5 11 4 -4 -9 -4 -12 3 8 21 1 -8 -14 -6
000040 01 09 04 ee 01 ec ef 05 f8 09 0e ff d7 05 03 09
       1 9 4 -18 1 -20 -17 5 -8 9 14 -1 -41 5 3 9
000050 f8 ee dd f4 0b e8 81 b9 05 14 d6 fc fb f3 05 08
       -8 -18 -35 -12 11 -24 -127 -71 5 20 -42 -4 -5 -13 5 8
000060 17 f3 e7 13 0f fc 31 e1 ec d6 e1 13 00 e5 21 0b
       23 -13 -25 19 15 -4 49 -31 -20 -42 -31 19 0 -27 33 11
000070 d6 13 16 db d1 f3 11 0d f9 e8 3a bf 03 2b ff ef
       -42 19 22 -37 -47 -13 17 13 -7 -24 58 -65 3 43 -1 -17
000080 f9 10 13 e5 1c fa e3 fb 10 f2 0a f3 2e f1 15 0b
       -7 16 19 -27 28 -6 -29 -5 16 -14 10 -13 46 -15 21 11
000090 00 15 0e f4 d3 eb 14 05 2a f4 02 0f c8 01 07 da
       0 21 14 -12 -45 -21 20 5 42 -12 2 15 -56 1 7 -38
0000a0 f7 1c f0 fb 0f 35 e0 06 db 01 ec de e4 0d 37 01
       -9 28 -16 -5 15 53 -32 6 -37 1 -20 -34 -28 13 55 1
0000b0 db 25 00 04 15 0c ee 14 07 c1 15 12 f2 1b fb f7
       -37 37 0 4 21 12 -18 20 7 -63 21 18 -14 27 -5 -9
0000c0 17 15 cc ff 07 06 fe fd f6 02 03 07 01 fd 05 f5
       23 21 -52 -1 7 6 -2 -3 -10 2 3 7 1 -3 5 -11
0000d0 fa 07 02 f8 fe fb fa fd 03 f7 ff ff fb 06 fe 08
       -6 7 2 -8 -2 -5 -6 -3 3 -9 -1 -1 -5 6 -2 8
0000e0 fc fb fe 02 fa f9 04 fe 05 02 fc fb 05 fb fb 02
       -4 -5 -2 2 -6 -7 4 -2 5 2 -4 -5 5 -5 -5 2
0000f0 06 ff fe fc f8 f0 f7 fc 03 03 f5 08 00 03 01 fc
       6 -1 -2 -4 -8 -16 -9 -4 3 3 -11 8 0 3 1 -4
