system/system/saiv/textrecognition/stride/mSTR_Latin_CNN.tflite (tflite, 622720 bytes, 11 tensors)

recog/cnn/GSE_B_2_fully_connected1/bias i1 [9] scale=0.008358216 zero_point=0
00000000: 067f fbfb 000e 36fb 11
0.050149295 1.0614934 -0.04179108 -0.04179108 0.0 0.11701502 0.45134366 -0.04179108
0.14208966

recog/cnn/GSE_A_1/GSE_A_1_fully_connected1/GSE_A_1_fully_connected1/Tensordot/MatMul i1 [6, 96] scale=0.0094353035 zero_point=0
00000000: b51b fc0f 05e2 e724 f51b ebf5 0410 fefd
00000010: c81a 13f4 10ff eaea d309 f0fc 1cc4 b119
00000020: ebf8 19dd eef0 17f0 fb05 03e9 fefe d30d
00000030: 0cef 0fe0 f1ad 0fef cadb 30ae ed00 e5fe
00000040: 23dd aa01 0116 10f0 1a0b 120a ed0e 0607
00000050: da17 110e f11c 5bf2 fce7 1be9 170f 0731
00000060: 23a9 f206 fbf0 191e 1afe e312 d0f0 2cf2
00000070: 0bfc f9df 01fb 20f6 05f2 1407 fea3 e902
00000080: f8fb 0726 0e1c bfef 0ee8 2d00 fae9 befe
00000090: 06f6 de1d 11ee 14ee 1937 e823 11fd e810
000000a0: fef2 1005 ae2a f332 080a 0511 ecfa 4a0a
000000b0: 2be9 4185 170a dee1 03eb f3f3 d618 f3cd
000000c0: c8f2 ea35 11f4 ede1 03fd fe0e eb09 0df1
000000d0: e8ff f9f3 c30c 17f9 fb11 0a0b 12f5 b40d
000000e0: 05e8 12e1 eb02 e613 0efa 1606 0ef6 461d
000000f0: 1135 08ed 03e2 f71d e8dc fae4 f508 1e23
-0.70764774 0.2547532 -0.037741214 0.14152956 0.047176518 -0.28305912 -0.23588258 0.33967093
-0.10378834 0.2547532 -0.19814137 -0.10378834 0.037741214 0.15096486 -0.018870607 -0.02830591
-0.528377 0.24531789 0.17927077 -0.11322364 0.15096486 -0.0094353035 -0.20757668 -0.20757668
-0.42458865 0.08491773 -0.15096486 -0.037741214 0.2641885 -0.56611824 -0.745389 0.23588258
-0.19814137 -0.07548243 0.23588258 -0.33023563 -0.16983546 -0.15096486 0.21701199 -0.15096486
-0.047176518 0.047176518 0.02830591 -0.21701199 -0.018870607 -0.018870607 -0.42458865 0.122658946
0.11322364 -0.16040015 0.14152956 -0.3019297 -0.14152956 -0.78313017 0.14152956 -0.16040015
-0.5095064 -0.34910622 0.45289457 -0.7736949 -0.17927077 0.0 -0.2547532 -0.018870607
0.33023563 -0.33023563 -0.8114361 0.0094353035 0.0094353035 0.20757668 0.15096486 -0.15096486
0.24531789 0.10378834 0.16983546 0.094353035 -0.17927077 0.13209425 0.05661182 0.066047125
-0.35854155 0.21701199 0.16040015 0.13209425 -0.14152956 0.2641885 0.8586126 -0.13209425
-0.037741214 -0.23588258 0.2547532 -0.21701199 0.21701199 0.14152956 0.066047125 0.46232986
0.33023563 -0.8208714 -0.13209425 0.05661182 -0.047176518 -0.15096486 0.23588258 0.28305912
0.24531789 -0.018870607 -0.2736238 0.16983546 -0.45289457 -0.15096486 0.41515335 -0.13209425
0.10378834 -0.037741214 -0.066047125 -0.311365 0.0094353035 -0.047176518 0.3019297 -0.094353035
0.047176518 -0.13209425 0.18870607 0.066047125 -0.018870607 -0.87748325 -0.21701199 0.018870607
-0.07548243 -0.047176518 0.066047125 0.35854155 0.13209425 0.2641885 -0.6132947 -0.16040015
0.13209425 -0.22644728 0.42458865 0.0 -0.05661182 -0.21701199 -0.62273 -0.018870607
0.05661182 -0.094353035 -0.3208003 0.2736238 0.16040015 -0.16983546 0.18870607 -0.16983546
0.23588258 0.5189417 -0.22644728 0.33023563 0.16040015 -0.02830591 -0.22644728 0.15096486
-0.018870607 -0.13209425 0.15096486 0.047176518 -0.7736949 0.39628273 -0.122658946 0.47176516
0.07548243 0.094353035 0.047176518 0.16040015 -0.18870607 -0.05661182 0.69821244 0.094353035
0.40571806 -0.21701199 0.6132947 -1.1605424 0.21701199 0.094353035 -0.3208003 -0.29249442
0.02830591 -0.19814137 -0.122658946 -0.122658946 -0.39628273 0.22644728 -0.122658946 -0.4812005
-0.528377 -0.13209425 -0.20757668 0.5000711 0.16040015 -0.11322364 -0.17927077 -0.29249442
0.02830591 -0.02830591 -0.018870607 0.13209425 -0.19814137 0.08491773 0.122658946 -0.14152956
-0.22644728 -0.0094353035 -0.066047125 -0.122658946 -0.57555354 0.11322364 0.21701199 -0.066047125
-0.047176518 0.16040015 0.094353035 0.10378834 0.16983546 -0.10378834 -0.7170831 0.122658946
0.047176518 -0.22644728 0.16983546 -0.29249442 -0.19814137 0.018870607 -0.24531789 0.17927077
0.13209425 -0.05661182 0.20757668 0.05661182 0.13209425 -0.094353035 0.66047126 0.2736238
0.16040015 0.5000711 0.07548243 -0.17927077 0.02830591 -0.28305912 -0.08491773 0.2736238
-0.22644728 -0.33967093 -0.05661182 -0.2641885 -0.10378834 0.07548243 0.28305912 0.33023563

recog/cnn/GSE_A_1/GSE_A_1_fully_connected2/GSE_A_1_fully_connected2/Tensordot/MatMul i1 [96, 6] scale=0.031013878 zero_point=0
00000000: 2403 0dec 00fb 2850 21f4 2bfd fafc 01fe
00000010: fdfb 0403 fb06 fe06 7054 5913 7c05 0607
00000020: 040a f6fc feff fdf9 fffa ea02 0704 effa
00000030: 0f5a 16fe 02fb fdfa fdf5 00f8 ff0d fefb
00000040: fe04 fbfc fc0e f603 fd01 01fb ff00 0505
00000050: 00fd fc05 07ff fc02 00fb fb01 0304 fa00
00000060: 2606 01fe ff02 fef9 ec07 f4fe fefd f7fe
00000070: 04fe fc08 0100 fc03 fcfa 00fb fd07 eb04
00000080: d201 e300 04f7 f9f5 fc07 0016 fdfb 0104
00000090: 00ff fffd fe06 fe06 0303 ff03 fc01 fffe
000000a0: fe01 fcf7 fbfd f602 f700 04ff f300 fe0a
000000b0: fdff 01ff 0529 2af4 02fa 2849 05c6 0c04
000000c0: f8f9 fbfd fffc 0303 0305 ff06 f9f6 00f8
000000d0: fc01 00fb 0101 fd00 fcf8 01f9 fb05 00fe
000000e0: feff ff08 5562 501e 50f9 0b0b fbe2 f9fb
000000f0: fe01 0003 fd04 0601 fefc ea03 fefe fe00
1.1164997 0.093041636 0.40318042 -0.6202776 0.0 -0.1550694 1.2405552 2.4811103
1.023458 -0.37216654 1.3335967 -0.093041636 -0.18608327 -0.12405551 0.031013878 -0.062027756
-0.093041636 -0.1550694 0.12405551 0.093041636 -0.1550694 0.18608327 -0.062027756 0.18608327
3.4735544 2.6051657 2.760235 0.5892637 3.8457208 0.1550694 0.18608327 0.21709715
0.12405551 0.3101388 -0.3101388 -0.12405551 -0.062027756 -0.031013878 -0.093041636 -0.21709715
-0.031013878 -0.18608327 -0.68230534 0.062027756 0.21709715 0.12405551 -0.5272359 -0.18608327
0.46520817 2.791249 0.68230534 -0.062027756 0.062027756 -0.1550694 -0.093041636 -0.18608327
-0.093041636 -0.34115267 0.0 -0.24811102 -0.031013878 0.40318042 -0.062027756 -0.1550694
-0.062027756 0.12405551 -0.1550694 -0.12405551 -0.12405551 0.4341943 -0.3101388 0.093041636
-0.093041636 0.031013878 0.031013878 -0.1550694 -0.031013878 0.0 0.1550694 0.1550694
0.0 -0.093041636 -0.12405551 0.1550694 0.21709715 -0.031013878 -0.12405551 0.062027756
0.0 -0.1550694 -0.1550694 0.031013878 0.093041636 0.12405551 -0.18608327 0.0
1.1785274 0.18608327 0.031013878 -0.062027756 -0.031013878 0.062027756 -0.062027756 -0.21709715
-0.6202776 0.21709715 -0.37216654 -0.062027756 -0.062027756 -0.093041636 -0.27912492 -0.062027756
0.12405551 -0.062027756 -0.12405551 0.24811102 0.031013878 0.0 -0.12405551 0.093041636
-0.12405551 -0.18608327 0.0 -0.1550694 -0.093041636 0.21709715 -0.65129143 0.12405551
-1.4266384 0.031013878 -0.89940244 0.0 0.12405551 -0.27912492 -0.21709715 -0.34115267
-0.12405551 0.21709715 0.0 0.68230534 -0.093041636 -0.1550694 0.031013878 0.12405551
0.0 -0.031013878 -0.031013878 -0.093041636 -0.062027756 0.18608327 -0.062027756 0.18608327
0.093041636 0.093041636 -0.031013878 0.093041636 -0.12405551 0.031013878 -0.031013878 -0.062027756
-0.062027756 0.031013878 -0.12405551 -0.27912492 -0.1550694 -0.093041636 -0.3101388 0.062027756
-0.27912492 0.0 0.12405551 -0.031013878 -0.40318042 0.0 -0.062027756 0.3101388
-0.093041636 -0.031013878 0.031013878 -0.031013878 0.1550694 1.271569 1.3025829 -0.37216654
0.062027756 -0.18608327 1.2405552 2.264013 0.1550694 -1.7988049 0.37216654 0.12405551
-0.24811102 -0.21709715 -0.1550694 -0.093041636 -0.031013878 -0.12405551 0.093041636 0.093041636
0.093041636 0.1550694 -0.031013878 0.18608327 -0.21709715 -0.3101388 0.0 -0.24811102
-0.12405551 0.031013878 0.0 -0.1550694 0.031013878 0.031013878 -0.093041636 0.0
-0.12405551 -0.24811102 0.031013878 -0.21709715 -0.1550694 0.1550694 0.0 -0.062027756
-0.062027756 -0.031013878 -0.031013878 0.24811102 2.6361797 3.03936 2.4811103 0.93041635
2.4811103 -0.21709715 0.34115267 0.34115267 -0.1550694 -0.93041635 -0.21709715 -0.1550694
-0.062027756 0.031013878 0.0 0.093041636 -0.093041636 0.12405551 0.18608327 0.031013878
-0.062027756 -0.12405551 -0.68230534 0.093041636 -0.062027756 -0.062027756 -0.062027756 0.0

recog/cnn/GSE_B_2/GSE_B_2_fully_connected1/GSE_B_2_fully_connected1/Tensordot/MatMul i1 [9, 156] scale=0.017545456 zero_point=0
00000000: fc0d f5f2 ff02 fef4 f20d f3fe fcfc f7ff
00000010: 1401 0301 fb01 f3f5 0107 08f0 0505 f4fc
00000020: 0304 f8e6 08ff 0914 fb0a 08f4 0602 0207
00000030: f801 08ff d2fe f50c f6ef 0502 090d fef5
00000040: 150b 00fe fe0c 01fd 0f2f 00fd 0c06 f500
00000050: 0501 fc0a 0604 17fd 001a d506 08ec f302
00000060: 00fc fc11 ff03 1411 f908 06fa 010a f402
00000070: feef 0efe f6f5 fb03 ee0c 0901 0c3b 09fb
00000080: 03f4 ffe5 fd06 08ef 0101 0305 fbf0 0b03
00000090: 0cf3 7f08 fb01 040d e501 f805 06e4 052b
000000a0: fb00 fde5 0c04 1bfb df19 f91d e00e ea01
000000b0: 1a0c fe20 f405 04e0 0efa d9d3 ff0f fbe5
000000c0: 060f fc04 25ef 0010 fde8 1115 101f effa
000000d0: f8fa ff24 f103 150d 1c07 0ef9 ef00 1cf7
000000e0: 0a16 0c11 fa0b fafb 08f5 dbe5 f5fe 27ed
000000f0: 020c 0803 21ea d000 18f8 06ee 04ef 050c
-0.070181824 0.22809093 -0.19300002 -0.24563639 -0.017545456 0.035090912 -0.035090912 -0.21054548
-0.24563639 0.22809093 -0.22809093 -0.035090912 -0.070181824 -0.070181824 -0.15790911 -0.017545456
0.3509091 0.017545456 0.05263637 0.017545456 -0.08772728 0.017545456 -0.22809093 -0.19300002
0.017545456 0.122818194 0.14036365 -0.2807273 0.08772728 0.08772728 -0.21054548 -0.070181824
0.05263637 0.070181824 -0.14036365 -0.45618185 0.14036365 -0.017545456 0.15790911 0.3509091
-0.08772728 0.17545456 0.14036365 -0.21054548 0.10527274 0.035090912 0.035090912 0.122818194
-0.14036365 0.017545456 0.14036365 -0.017545456 -0.807091 -0.035090912 -0.19300002 0.21054548
-0.17545456 -0.29827276 0.08772728 0.035090912 0.15790911 0.22809093 -0.035090912 -0.19300002
0.36845458 0.19300002 0.0 -0.035090912 -0.035090912 0.21054548 0.017545456 -0.05263637
0.26318184 0.82463646 0.0 -0.05263637 0.21054548 0.10527274 -0.19300002 0.0
0.08772728 0.017545456 -0.070181824 0.17545456 0.10527274 0.070181824 0.4035455 -0.05263637
0.0 0.45618185 -0.7544546 0.10527274 0.14036365 -0.3509091 -0.22809093 0.035090912
0.0 -0.070181824 -0.070181824 0.29827276 -0.017545456 0.05263637 0.3509091 0.29827276
-0.122818194 0.14036365 0.10527274 -0.10527274 0.017545456 0.17545456 -0.21054548 0.035090912
-0.035090912 -0.29827276 0.24563639 -0.035090912 -0.17545456 -0.19300002 -0.08772728 0.05263637
-0.31581822 0.21054548 0.15790911 0.017545456 0.21054548 1.0351819 0.15790911 -0.08772728
0.05263637 -0.21054548 -0.017545456 -0.47372732 -0.05263637 0.10527274 0.14036365 -0.29827276
0.017545456 0.017545456 0.05263637 0.08772728 -0.08772728 -0.2807273 0.19300002 0.05263637
0.21054548 -0.22809093 2.228273 0.14036365 -0.08772728 0.017545456 0.070181824 0.22809093
-0.47372732 0.017545456 -0.14036365 0.08772728 0.10527274 -0.49127278 0.08772728 0.7544546
-0.08772728 0.0 -0.05263637 -0.47372732 0.21054548 0.070181824 0.47372732 -0.08772728
-0.57900006 0.4386364 -0.122818194 0.5088182 -0.5614546 0.24563639 -0.38600004 0.017545456
0.45618185 0.21054548 -0.035090912 0.5614546 -0.21054548 0.08772728 0.070181824 -0.5614546
0.24563639 -0.10527274 -0.68427277 -0.78954554 -0.017545456 0.26318184 -0.08772728 -0.47372732
0.10527274 0.26318184 -0.070181824 0.070181824 0.6491819 -0.29827276 0.0 0.2807273
-0.05263637 -0.42109096 0.29827276 0.36845458 0.2807273 0.54390913 -0.29827276 -0.10527274
-0.14036365 -0.10527274 -0.017545456 0.63163644 -0.26318184 0.05263637 0.36845458 0.22809093
0.49127278 0.122818194 0.24563639 -0.122818194 -0.29827276 0.0 0.49127278 -0.15790911
0.17545456 0.38600004 0.21054548 0.29827276 -0.10527274 0.19300002 -0.10527274 -0.08772728
0.14036365 -0.19300002 -0.6491819 -0.47372732 -0.19300002 -0.035090912 0.68427277 -0.33336365
0.035090912 0.21054548 0.14036365 0.05263637 0.57900006 -0.38600004 -0.8421819 0.0
0.42109096 -0.14036365 0.10527274 -0.31581822 0.070181824 -0.29827276 0.08772728 0.21054548

recog/cnn/GSE_B_2/GSE_B_2_fully_connected2/GSE_B_2_fully_connected2/Tensordot/MatMul i1 [156, 9] scale=0.014629012 zero_point=0
00000000: f5e7 0afe 0c0f fa07 0afe ed09 0bf7 00fc
00000010: fb04 ffef 07ff f503 000a 0201 ed0b f7fd
00000020: 06fa 0703 00ec f90b 0503 fd07 01fc f5f5
00000030: f3fd f9ef 08fc eeea f8f7 fe12 faf5 0ad4
00000040: f1f6 0bb8 1bef 070c ffed fefa fef9 fdf9
00000050: 0102 f003 0505 01f3 fefd 09f5 0a02 07f5
00000060: f4f6 eefa ec09 f3fa 0601 f505 eef6 f9fe
00000070: fbff f1f4 fc06 ecfa 0afe 0300 0dfd fdf1
00000080: 09fd 01f9 f40c 01ca f905 04f2 d1e3 f607
00000090: 01fa 0403 f800 f200 efe6 ef01 0618 17e5
000000a0: f8f6 fdf9 10f8 04fb e6ff fcf3 ec02 0602
000000b0: 0503 fafd 0eff fd0a dbd6 ccfd 06dc f00a
000000c0: 0cdb d505 0505 00ea fb03 f8ff 09f9 fa07
000000d0: f9f5 07ff ffe9 fff5 fbf7 04fe 0b05 e207
000000e0: fcff e802 0b00 0502 0700 f8ef f302 0004
000000f0: f909 07fc ea05 f5f9 0101 0603 ede8 0007
-0.16091913 -0.3657253 0.14629012 -0.029258024 0.17554814 0.21943519 -0.08777407 0.10240308
0.14629012 -0.029258024 -0.27795124 0.1316611 0.16091913 -0.1316611 0.0 -0.058516048
-0.07314506 0.058516048 -0.014629012 -0.2486932 0.10240308 -0.014629012 -0.16091913 0.043887034
0.0 0.14629012 0.029258024 0.014629012 -0.27795124 0.16091913 -0.1316611 -0.043887034
0.08777407 -0.08777407 0.10240308 0.043887034 0.0 -0.29258025 -0.10240308 0.16091913
0.07314506 0.043887034 -0.043887034 0.10240308 0.014629012 -0.058516048 -0.16091913 -0.16091913
-0.19017716 -0.043887034 -0.10240308 -0.2486932 0.117032096 -0.058516048 -0.2633222 -0.32183826
-0.117032096 -0.1316611 -0.029258024 0.2633222 -0.08777407 -0.16091913 0.14629012 -0.6436765
-0.21943519 -0.14629012 0.16091913 -1.0532888 0.39498332 -0.2486932 0.10240308 0.17554814
-0.014629012 -0.27795124 -0.029258024 -0.08777407 -0.029258024 -0.10240308 -0.043887034 -0.10240308
0.014629012 0.029258024 -0.23406419 0.043887034 0.07314506 0.07314506 0.014629012 -0.19017716
-0.029258024 -0.043887034 0.1316611 -0.16091913 0.14629012 0.029258024 0.10240308 -0.16091913
-0.17554814 -0.14629012 -0.2633222 -0.08777407 -0.29258025 0.1316611 -0.19017716 -0.08777407
0.08777407 0.014629012 -0.16091913 0.07314506 -0.2633222 -0.14629012 -0.10240308 -0.029258024
-0.07314506 -0.014629012 -0.21943519 -0.17554814 -0.058516048 0.08777407 -0.29258025 -0.08777407
0.14629012 -0.029258024 0.043887034 0.0 0.19017716 -0.043887034 -0.043887034 -0.21943519
0.1316611 -0.043887034 0.014629012 -0.10240308 -0.17554814 0.17554814 0.014629012 -0.78996664
-0.10240308 0.07314506 0.058516048 -0.20480616 -0.68756354 -0.42424133 -0.14629012 0.10240308
0.014629012 -0.08777407 0.058516048 0.043887034 -0.117032096 0.0 -0.20480616 0.0
-0.2486932 -0.38035432 -0.2486932 0.014629012 0.08777407 0.35109627 0.33646727 -0.39498332
-0.117032096 -0.14629012 -0.043887034 -0.10240308 0.23406419 -0.117032096 0.058516048 -0.07314506
-0.38035432 -0.014629012 -0.058516048 -0.19017716 -0.29258025 0.029258024 0.08777407 0.029258024
0.07314506 0.043887034 -0.08777407 -0.043887034 0.20480616 -0.014629012 -0.043887034 0.14629012
-0.5412734 -0.6144185 -0.76070863 -0.043887034 0.08777407 -0.5266444 -0.23406419 0.14629012
0.17554814 -0.5412734 -0.6290475 0.07314506 0.07314506 0.07314506 0.0 -0.32183826
-0.07314506 0.043887034 -0.117032096 -0.014629012 0.1316611 -0.10240308 -0.08777407 0.10240308
-0.10240308 -0.16091913 0.10240308 -0.014629012 -0.014629012 -0.33646727 -0.014629012 -0.16091913
-0.07314506 -0.1316611 0.058516048 -0.029258024 0.16091913 0.07314506 -0.43887037 0.10240308
-0.058516048 -0.014629012 -0.35109627 0.029258024 0.16091913 0.0 0.07314506 0.029258024
0.10240308 0.0 -0.117032096 -0.2486932 -0.19017716 0.029258024 0.0 0.058516048
-0.10240308 0.1316611 0.10240308 -0.058516048 -0.32183826 0.07314506 -0.16091913 -0.10240308
0.014629012 0.014629012 0.08777407 0.043887034 -0.27795124 -0.35109627 0.0 0.10240308

recog/cnn/conv2d/Conv2D i1 [32, 3, 3, 3]
00000000: f2ef f8fb 0cff 0a13 05f6 260b 2a64 2120
00000010: 3805 01f0 fefe c2f1 cc81 e2c4 8cdf 304d
00000020: 3d08 0f06 c88c e353 7f4b e314 d0eb e406
00000030: 334a 16ea c9c3 2f34 0eed a2f1 e725 ffd6
00000040: afdd da7f 0842 e61e ff20 152f d406 dbfe
00000050: e2fc 25e2 df65 bdea 24eb 3381 44e4 43da
00000060: db4b dc10 b83f 4981 36ef 070a 130c 0a81
00000070: fc05 08e1 f714 1007 1302 000e fdfb 100e
00000080: 060f 07fb 0b03 fd08 0b05 0781 0804 0e06
00000090: fd0b fe02 0f03 ff0c fdf9 08fc 000c fffa
000000a0: 06fd c60c 2e81 1963 a211 4d45 fbc1 24f5
000000b0: e6df 021b 47f7 c75b eaba 2ff7 df43 5730
000000c0: 2127 159c 81bd ded8 e203 feff 242f 18d4
000000d0: c8e6 f6ea fb30 4b25 2922 dc9e f845 3cd3
000000e0: da09 392b 2a81 d0cd 5022 0e32 12a8 93ef
000000f0: 4645 e789 97c9 a4a3 ecfd 0512 0718 0668
-14 -17 -8 -5 12 -1 10 19
5 -10 38 11 42 100 33 32
56 5 1 -16 -2 -2 -62 -15
-52 -127 -30 -60 -116 -33 48 77
61 8 15 6 -56 -116 -29 83
127 75 -29 20 -48 -21 -28 6
51 74 22 -22 -55 -61 47 52
14 -19 -94 -15 -25 37 -1 -42
-81 -35 -38 127 8 66 -26 30
-1 32 21 47 -44 6 -37 -2
-30 -4 37 -30 -33 101 -67 -22
36 -21 51 -127 68 -28 67 -38
-37 75 -36 16 -72 63 73 -127
54 -17 7 10 19 12 10 -127
-4 5 8 -31 -9 20 16 7
19 2 0 14 -3 -5 16 14
6 15 7 -5 11 3 -3 8
11 5 7 -127 8 4 14 6
-3 11 -2 2 15 3 -1 12
-3 -7 8 -4 0 12 -1 -6
6 -3 -58 12 46 -127 25 99
-94 17 77 69 -5 -63 36 -11
-26 -33 2 27 71 -9 -57 91
-22 -70 47 -9 -33 67 87 48
33 39 21 -100 -127 -67 -34 -40
-30 3 -2 -1 36 47 24 -44
-56 -26 -10 -22 -5 48 75 37
41 34 -36 -98 -8 69 60 -45
-38 9 57 43 42 -127 -48 -51
80 34 14 50 18 -88 -109 -17
70 69 -25 -119 -105 -55 -92 -93
-20 -3 5 18 7 24 6 104

recog/cnn/extra/Conv2D i1 [64, 3, 3, 32]
00000000: 07f9 f0e5 f8fe e5fa 0308 0108 ee07 edfb
00000010: dfea f200 fef2 0003 f4ec ff03 e901 fb00
00000020: 09fe 0bff 0bf5 0f06 fd1c 071b 0100 0a18
00000030: f80b 07f1 fdfd 0814 f500 0308 f40d 050d
00000040: eeed d00e 0d09 0dec dcff fa0e ed01 df07
00000050: eb17 c3fc 0def 07fd f8f8 f102 fc10 09f3
00000060: 0d14 f302 f6ed 02f3 03eb 0afb 170d 00f1
00000070: faff 1112 d31b 07fe 170a 220a 0415 1501
00000080: fc18 ec05 0aea ffee fdef 0601 1b04 fdff
00000090: 0a00 e114 ee18 fe05 1f0b 19ed 121b 21ed
000000a0: 1007 d3ed ecf8 01cf f6e3 1cfb 061e c801
000000b0: fef8 b901 f612 1308 07ff 0400 fc2d 2ae8
000000c0: 0908 e206 f9f7 f8f8 f0f0 f8f3 04f3 04f8
000000d0: f110 fe02 fc00 03f6 0412 1012 0dfd f10b
000000e0: 0ef6 dc0f fa0f 0b02 ebf2 f40e f1e7 fa03
000000f0: 00f4 d801 efeb 17f3 0303 e8f4 12e0 fde4
7 -7 -16 -27 -8 -2 -27 -6
3 8 1 8 -18 7 -19 -5
-33 -22 -14 0 -2 -14 0 3
-12 -20 -1 3 -23 1 -5 0
9 -2 11 -1 11 -11 15 6
-3 28 7 27 1 0 10 24
-8 11 7 -15 -3 -3 8 20
-11 0 3 8 -12 13 5 13
-18 -19 -48 14 13 9 13 -20
-36 -1 -6 14 -19 1 -33 7
-21 23 -61 -4 13 -17 7 -3
-8 -8 -15 2 -4 16 9 -13
13 20 -13 2 -10 -19 2 -13
3 -21 10 -5 23 13 0 -15
-6 -1 17 18 -45 27 7 -2
23 10 34 10 4 21 21 1
-4 24 -20 5 10 -22 -1 -18
-3 -17 6 1 27 4 -3 -1
10 0 -31 20 -18 24 -2 5
31 11 25 -19 18 27 33 -19
16 7 -45 -19 -20 -8 1 -49
-10 -29 28 -5 6 30 -56 1
-2 -8 -71 1 -10 18 19 8
7 -1 4 0 -4 45 42 -24
9 8 -30 6 -7 -9 -8 -8
-16 -16 -8 -13 4 -13 4 -8
-15 16 -2 2 -4 0 3 -10
4 18 16 18 13 -3 -15 11
14 -10 -36 15 -6 15 11 2
-21 -14 -12 14 -15 -25 -6 3
0 -12 -40 1 -17 -21 23 -13
3 3 -24 -12 18 -32 -3 -28

recog/cnn/conv2d_1/Conv2D i1 [96, 3, 3, 64]
00000000: acf0 13e5 25f2 091f 36fa 06e9 0119 1d09
00000010: 0cfb fcff e607 0bf8 eb45 f9dc 18f2 d7f7
00000020: fae9 10de f4de 000b eaf8 fd00 0817 efef
00000030: e111 0813 d421 f4f3 eae4 06f1 f705 e6ea
00000040: f9db f1ef 0c0f 0df7 2d0f ea26 22f5 dbfe
00000050: f509 dbfc e9ed fdcf 03d1 a831 f0e3 0202
00000060: 0ae8 e500 f9d9 fcee e239 c2e1 392c 1704
00000070: eae7 edf6 1d13 ee17 d00d fd10 0031 dcf1
00000080: fce2 0c0a ec02 01f3 e0f3 0eeb e0e3 fa19
00000090: 0b0c 0209 d0fd f0f8 bcf5 185e 16ef 1cf8
000000a0: 4319 e6e6 93f3 f2eb 0ce8 2dfe ead6 e5f0
000000b0: 21eb ec09 07f1 153c f015 1ef7 0df2 1c10
000000c0: eb08 0b17 d51e 0ce3 f60e 09f9 0ce6 1219
000000d0: 0cf9 fc01 c73d f3f6 c5f2 33fc 080c 271a
000000e0: eadd dc91 0a2b 1af1 f4e4 faf0 8100 e006
000000f0: 1af0 fe04 d316 27de 0ad2 34ed fca5 fa00
-84 -16 19 -27 37 -14 9 31
54 -6 6 -23 1 25 29 9
12 -5 -4 -1 -26 7 11 -8
-21 69 -7 -36 24 -14 -41 -9
-6 -23 16 -34 -12 -34 0 11
-22 -8 -3 0 8 23 -17 -17
-31 17 8 19 -44 33 -12 -13
-22 -28 6 -15 -9 5 -26 -22
-7 -37 -15 -17 12 15 13 -9
45 15 -22 38 34 -11 -37 -2
-11 9 -37 -4 -23 -19 -3 -49
3 -47 -88 49 -16 -29 2 2
10 -24 -27 0 -7 -39 -4 -18
-30 57 -62 -31 57 44 23 4
-22 -25 -19 -10 29 19 -18 23
-48 13 -3 16 0 49 -36 -15
-4 -30 12 10 -20 2 1 -13
-32 -13 14 -21 -32 -29 -6 25
11 12 2 9 -48 -3 -16 -8
-68 -11 24 94 22 -17 28 -8
67 25 -26 -26 -109 -13 -14 -21
12 -24 45 -2 -22 -42 -27 -16
33 -21 -20 9 7 -15 21 60
-16 21 30 -9 13 -14 28 16
-21 8 11 23 -43 30 12 -29
-10 14 9 -7 12 -26 18 25
12 -7 -4 1 -57 61 -13 -10
-59 -14 51 -4 8 12 39 26
-22 -35 -36 -111 10 43 26 -15
-12 -28 -6 -16 -127 0 -32 6
26 -16 -2 4 -45 22 39 -34
10 -46 52 -19 -4 -91 -6 0

recog/cnn/conv2d_2/Conv2D i1 [156, 3, 3, 96]
00000000: e6f4 131f fbd9 fcf0 06ed 1104 f9fe 44fb
00000010: f825 011a 16e2 2cf9 f805 15f4 2beb 0aeb
00000020: 1404 1bfa 0014 e5e2 0109 fc04 fcf4 04ec
00000030: 0732 042f 0310 e2ea 0e01 39ff 04e0 ef10
00000040: 2fd9 0826 09de f6d9 fed5 0611 f6fc f13d
00000050: eddd 32ed b8ee fcfb eb00 1604 03fd 1a04
00000060: f31e e8fd d4c5 00e0 081f 0a06 fffc f8fb
00000070: f5f9 fd0b 13cf eaff f8fe e91c f6fd 05f0
00000080: d9ff dcf7 0225 1919 e815 1700 ff0b 0823
00000090: f3fa f61a fb05 051f e401 d8de 25df 04f6
000000a0: 0903 0af3 02d5 2204 0ad0 db01 e6fb d846
000000b0: f5d0 030a e3f0 0b0a e1ee 200c f903 16e8
000000c0: f40a e2fb fce4 1ff0 ff0f e4da 02f7 fef6
000000d0: 0b01 05ff 1af2 dbf3 c2fd 0507 c511 f800
000000e0: 13fa fff7 0612 ff01 0bfb 1301 fc33 1607
000000f0: 1420 f517 fb10 28d5 1a05 cbf7 41fa 070b
-26 -12 19 31 -5 -39 -4 -16
6 -19 17 4 -7 -2 68 -5
-8 37 1 26 22 -30 44 -7
-8 5 21 -12 43 -21 10 -21
20 4 27 -6 0 20 -27 -30
1 9 -4 4 -4 -12 4 -20
7 50 4 47 3 16 -30 -22
14 1 57 -1 4 -32 -17 16
47 -39 8 38 9 -34 -10 -39
-2 -43 6 17 -10 -4 -15 61
-19 -35 50 -19 -72 -18 -4 -5
-21 0 22 4 3 -3 26 4
-13 30 -24 -3 -44 -59 0 -32
8 31 10 6 -1 -4 -8 -5
-11 -7 -3 11 19 -49 -22 -1
-8 -2 -23 28 -10 -3 5 -16
-39 -1 -36 -9 2 37 25 25
-24 21 23 0 -1 11 8 35
-13 -6 -10 26 -5 5 5 31
-28 1 -40 -34 37 -33 4 -10
9 3 10 -13 2 -43 34 4
10 -48 -37 1 -26 -5 -40 70
-11 -48 3 10 -29 -16 11 10
-31 -18 32 12 -7 3 22 -24
-12 10 -30 -5 -4 -28 31 -16
-1 15 -28 -38 2 -9 -2 -10
11 1 5 -1 26 -14 -37 -13
-62 -3 5 7 -59 17 -8 0
19 -6 -1 -9 6 18 -1 1
11 -5 19 1 -4 51 22 7
20 32 -11 23 -5 16 40 -43
26 5 -53 -9 65 -6 7 11

recog/cnn/conv2d_3/Conv2D i1 [224, 3, 3, 156]
00000000: e3e5 0f08 fcf1 0536 0ffa 0ae2 0a24 1119
00000010: e8e1 101e 13f6 eb13 09df ff08 2511 10f2
00000020: c4ea 1d36 ff1e 05fd 1628 1ef6 e107 d50a
00000030: 2009 c1eb 0e0f 05fa 212d ebe4 e0e3 ec0b
00000040: dedd 0107 dd02 04dd ee22 13fb e9e0 031d
00000050: 26dc 1204 14e8 f4c9 f5f8 041a f7f6 3bc8
00000060: 0e01 15da ece0 1514 1d39 0816 bc34 d911
00000070: 03f8 b100 1e02 ec1f e719 ff00 16dc dbd6
00000080: e423 c9d6 24ed 19b2 07cd 0119 260e 0a12
00000090: 210c ece9 090a 21f0 09b9 09fb d82e f21d
000000a0: 0bf8 fb37 d2fc e738 14e0 d726 ec09 0a16
000000b0: 160e d410 08f4 4a20 fcd6 f62f 00ce fe0e
000000c0: d3fb 023c 0fed e202 a805 f405 1f0c dd1d
000000d0: 14f1 0a35 281f 120a 435e efef fbe8 f7da
000000e0: 06c1 b3b3 ed0a f9eb 0516 0112 14f9 25d1
000000f0: e50b f8b1 1ccb 1700 d718 d914 f7f7 ed10
-29 -27 15 8 -4 -15 5 54
15 -6 10 -30 10 36 17 25
-24 -31 16 30 19 -10 -21 19
9 -33 -1 8 37 17 16 -14
-60 -22 29 54 -1 30 5 -3
22 40 30 -10 -31 7 -43 10
32 9 -63 -21 14 15 5 -6
33 45 -21 -28 -32 -29 -20 11
-34 -35 1 7 -35 2 4 -35
-18 34 19 -5 -23 -32 3 29
38 -36 18 4 20 -24 -12 -55
-11 -8 4 26 -9 -10 59 -56
14 1 21 -38 -20 -32 21 20
29 57 8 22 -68 52 -39 17
3 -8 -79 0 30 2 -20 31
-25 25 -1 0 22 -36 -37 -42
-28 35 -55 -42 36 -19 25 -78
7 -51 1 25 38 14 10 18
33 12 -20 -23 9 10 33 -16
9 -71 9 -5 -40 46 -14 29
11 -8 -5 55 -46 -4 -25 56
20 -32 -41 38 -20 9 10 22
22 14 -44 16 8 -12 74 32
-4 -42 -10 47 0 -50 -2 14
-45 -5 2 60 15 -19 -30 2
-88 5 -12 5 31 12 -35 29
20 -15 10 53 40 31 18 10
67 94 -17 -17 -5 -24 -9 -38
6 -63 -77 -77 -19 10 -7 -21
5 22 1 18 20 -7 37 -47
-27 11 -8 -79 28 -53 23 0
-41 24 -39 20 -9 -9 -19 16

recog/cnn/conv2d_4/Conv2D i1 [164, 1, 1, 320]
00000000: 1a0b e337 e211 2cea 01ff f90d 0b27 3aaf
00000010: 0511 03f7 e5e5 0b08 07f1 11df f6f7 0a0e
00000020: f2f5 a02e feec fd0a 0ef7 0724 dd03 d729
00000030: eefd d117 05f5 810d fffe 0aff 0938 0c20
00000040: 1411 f405 1de5 c0d5 1018 070b 0d14 0ae2
00000050: 2d18 fcf7 0ef1 21d5 f52a 24f9 50f5 06f1
00000060: fe04 15f8 47f0 3001 fce7 bd1b 15fe 111e
00000070: f625 dabc f2e9 ef10 f11f f5f1 fcf1 08fd
00000080: 0cfa ee16 0b06 04ec 04ee 242c cb11 02eb
00000090: 09e7 fae9 2018 0703 07de f410 14ee ce0d
000000a0: 0908 0e10 f6f2 f2e3 2af4 0cbf f4ed ebfe
000000b0: 0ca9 ea0a 1a15 f1ea fa04 ebf8 ecf2 f5f4
000000c0: 1af5 dd00 0220 e316 efee f0cf 0ae2 fa0f
000000d0: 0530 fc00 1224 10d3 0d06 17d8 1023 2f02
000000e0: 09f5 0807 0df3 e608 f217 fc0f 04f1 ff03
000000f0: f0fd f4fe ff77 f3f8 08f8 ee15 0f03 05fc
26 11 -29 55 -30 17 44 -22
1 -1 -7 13 11 39 58 -81
5 17 3 -9 -27 -27 11 8
7 -15 17 -33 -10 -9 10 14
-14 -11 -96 46 -2 -20 -3 10
14 -9 7 36 -35 3 -41 41
-18 -3 -47 23 5 -11 -127 13
-1 -2 10 -1 9 56 12 32
20 17 -12 5 29 -27 -64 -43
16 24 7 11 13 20 10 -30
45 24 -4 -9 14 -15 33 -43
-11 42 36 -7 80 -11 6 -15
-2 4 21 -8 71 -16 48 1
-4 -25 -67 27 21 -2 17 30
-10 37 -38 -68 -14 -23 -17 16
-15 31 -11 -15 -4 -15 8 -3
12 -6 -18 22 11 6 4 -20
4 -18 36 44 -53 17 2 -21
9 -25 -6 -23 32 24 7 3
7 -34 -12 16 20 -18 -50 13
9 8 14 16 -10 -14 -14 -29
42 -12 12 -65 -12 -19 -21 -2
12 -87 -22 10 26 21 -15 -22
-6 4 -21 -8 -20 -14 -11 -12
26 -11 -35 0 2 32 -29 22
-17 -18 -16 -49 10 -30 -6 15
5 48 -4 0 18 36 16 -45
13 6 23 -40 16 35 47 2
9 -11 8 7 13 -13 -26 8
-14 23 -4 15 4 -15 -1 3
-16 -3 -12 -2 -1 119 -13 -8
8 -8 -18 21 15 3 5 -4
