system/system/saiv/textrecognition/stride/mSTR_Chinese_CNN.tflite (tflite, 589584 bytes, 5 tensors)

recog/cnn/conv2d/Conv2D i1 [64, 3, 3, 3]
000000 04 02 23 bf a3 ec 29 44 fa c6 9a f3 df 2b e9 42
       4 2 35 -65 -93 -20 41 68 -6 -58 -102 -13 -33 43 -23 66
000010 2c 1a a9 b7 d3 7f 7e 3a 05 f3 f3 0c 08 f7 0f 03
       44 26 -87 -73 -45 127 126 58 5 -13 -13 12 8 -9 15 3
000020 16 b4 81 dc 01 ff 04 f5 fe 01 14 24 fa f7 f6 05
       22 -76 -127 -36 1 -1 4 -11 -2 1 20 36 -6 -9 -10 5
000030 f7 f6 ec 38 65 28 b1 fe 50 c5 55 e6 62 fb a3 d1
       -9 -10 -20 56 101 40 -79 -2 80 -59 85 -26 98 -5 -93 -47
000040 41 ed 0b 28 cb e4 21 fa 6b d4 c2 44 81 40 b8 d4
       65 -19 11 40 -53 -28 33 -6 107 -44 -62 68 -127 64 -72 -44
000050 74 a9 25 35 ed a4 12 5e 37 ba c7 1e 2f 01 d6 0e
       116 -87 37 53 -19 -92 18 94 55 -70 -57 30 47 1 -42 14
000060 49 0b c8 d2 5c 54 b1 81 d7 77 23 d2 60 6c 1d d7
       73 11 -56 -46 92 84 -79 -127 -41 119 35 -46 96 108 29 -41
000070 15 2c c4 81 b8 05 24 f9 e0 ed 1d 1f eb ea f4 0a
       21 44 -60 -127 -72 5 36 -7 -32 -19 29 31 -21 -22 -12 10
000080 0b 0d ee f8 00 09 fd 2e d0 c0 42 7f 02 c3 e7 2a
       11 13 -18 -8 0 9 -3 46 -48 -64 66 127 2 -61 -25 42
000090 1c 43 ff 95 e0 5d 07 a1 d5 ba 01 38 24 97 cc 35
       28 67 -1 -107 -32 93 7 -95 -43 -70 1 56 36 -105 -52 53
0000a0 6a e4 18 1c 07 f2 f8 03 d5 c1 e7 ca bc ed 33 2c
       106 -28 24 28 7 -14 -8 3 -43 -63 -25 -54 -68 -19 51 44
0000b0 04 47 7f 2d 1e 2c 0d d3 c6 f2 ea ce f3 db 0e 22
       4 71 127 45 30 44 13 -45 -58 -14 -22 -50 -13 -37 14 34
0000c0 70 e0 bb 22 00 e5 81 27 50 27 03 e1 62 d8 bf aa
       112 -32 -69 34 0 -27 -127 39 80 39 3 -31 98 -40 -65 -86
0000d0 f5 40 8d 20 4b 51 fe c3 0f 12 ff 16 24 f6 2f 48
       -11 64 -115 32 75 81 -2 -61 15 18 -1 22 36 -10 47 72
0000e0 18 1a 28 f4 fe 05 0e bd 81 df 13 2e 0e 04 f0 09
       24 26 40 -12 -2 5 14 -67 -127 -33 19 46 14 4 -16 9
0000f0 c2 ac f8 eb d7 fa f7 d7 ed f5 fc 00 13 38 00 34
       -62 -84 -8 -21 -41 -6 -9 -41 -19 -11 -4 0 19 56 0 52

recog/cnn/conv2d_1/Conv2D i1 [96, 3, 3, 64]
000000 f6 1d 15 06 f7 f9 fa 11 13 d7 07 11 e0 eb d9 ec
       -10 29 21 6 -9 -7 -6 17 19 -41 7 17 -32 -21 -39 -20
000010 0b ed 00 1d 1e 02 ed 00 e9 27 1e 1b 0b f1 ef d3
       11 -19 0 29 30 2 -19 0 -23 39 30 27 11 -15 -17 -45
000020 e1 fe c9 0e db ee f8 23 13 f0 fb da 0c 3e 11 e6
       -31 -2 -55 14 -37 -18 -8 35 19 -16 -5 -38 12 62 17 -26
000030 06 ea f8 1e 0f e2 14 06 e8 07 fc f5 e6 0e 0a 15
       6 -22 -8 30 15 -30 20 6 -24 7 -4 -11 -26 14 10 21
000040 0b 28 c4 0e f4 0d 00 05 f0 d1 fd 37 fe 1e f1 e6
       11 40 -60 14 -12 13 0 5 -16 -47 -3 55 -2 30 -15 -26
000050 09 cf 13 ce d4 13 11 ec 01 0b db 0a 05 ce 04 12
       9 -49 19 -50 -44 19 17 -20 1 11 -37 10 5 -50 4 18
000060 ec 19 e8 23 ff fd 0f e8 f7 20 fe a3 39 18 dc f0
       -20 25 -24 35 -1 -3 15 -24 -9 32 -2 -93 57 24 -36 -16
000070 03 ed ff 11 0b fb 03 05 26 0f ea e8 e7 ec 0e 1b
       3 -19 -1 17 11 -5 3 5 38 15 -22 -24 -25 -20 14 27
000080 f1 09 dd 02 ec 14 fd ff 13 e3 de fe ea 1f 09 fb
       -15 9 -35 2 -20 20 -3 -1 19 -29 -34 -2 -22 31 9 -5
000090 07 f7 fe c4 d9 12 01 f4 01 06 81 16 f6 fc 15 09
       7 -9 -2 -60 -39 18 1 -12 1 6 -127 22 -10 -4 21 9
0000a0 09 0d ff 0c 38 1e 1f e0 e2 18 00 c1 18 08 17 0d
       9 13 -1 12 56 30 31 -32 -30 24 0 -63 24 8 23 13
0000b0 f3 0e 07 16 d3 1b 0c f8 2d 22 09 f2 23 e1 0c 00
       -13 14 7 22 -45 27 12 -8 45 34 9 -14 35 -31 12 0
0000c0 f7 01 1a 04 29 f1 e8 01 0e 0d f9 20 e4 f3 e8 02
       -9 1 26 4 41 -15 -24 1 14 13 -7 32 -28 -13 -24 2
0000d0 09 f5 09 64 2a 14 dd fa eb fe 77 0c 2a ff e4 c6
       9 -11 9 100 42 20 -35 -6 -21 -2 119 12 42 -1 -28 -58
0000e0 ed e3 db 00 cb f8 00 22 11 b3 08 fc 0f 25 0c 0d
       -19 -29 -37 0 -53 -8 0 34 17 -77 8 -4 15 37 12 13
0000f0 2d 0e db 0d 41 e9 00 fc c9 11 03 15 e2 41 dd 19
       45 14 -37 13 65 -23 0 -4 -55 17 3 21 -30 65 -35 25

recog/cnn/conv2d_2/Conv2D i1 [156, 3, 3, 96]
000000 11 0f ec fa f4 ea ce e8 f5 06 ef 21 e9 00 d9 10
       17 15 -20 -6 -12 -22 -50 -24 -11 6 -17 33 -23 0 -39 16
000010 1e dc 14 d3 05 2c 04 f1 e9 2e 24 ec e7 08 e7 d5
       30 -36 20 -45 5 44 4 -15 -23 46 36 -20 -25 8 -25 -43
000020 eb 0d 26 08 f1 e5 29 00 da cf 11 f3 19 d0 e5 19
       -21 13 38 8 -15 -27 41 0 -38 -49 17 -13 25 -48 -27 25
000030 13 da 07 fe f5 fb 0d 08 ef e9 0c 2d 36 fc 08 ec
       19 -38 7 -2 -11 -5 13 8 -17 -23 12 45 54 -4 8 -20
000040 31 1e 17 fb 13 ee e5 ee 09 f8 03 09 1d 13 e2 cf
       49 30 23 -5 19 -18 -27 -18 9 -8 3 9 29 19 -30 -49
000050 f1 bf f2 e5 1c 22 27 e2 01 05 ec ec 0f e5 1b f4
       -15 -65 -14 -27 28 34 39 -30 1 5 -20 -20 15 -27 27 -12
000060 e1 1b 00 f3 fa f9 d1 c5 0f 1f f8 03 f8 1f fc 09
       -31 27 0 -13 -6 -7 -47 -59 15 31 -8 3 -8 31 -4 9
000070 02 ed 0b f7 04 1e f9 11 10 0e 2b 0e f2 fe ef 07
       2 -19 11 -9 4 30 -7 17 16 14 43 14 -14 -2 -17 7
000080 ef 03 e1 e6 ea 23 19 02 f6 ec e6 0b f5 07 e5 fe
       -17 3 -31 -26 -22 35 25 2 -10 -20 -26 11 -11 7 -27 -2
000090 f7 f1 14 f7 ea 14 f8 0a 12 18 04 0d f6 18 dd 03
       -9 -15 20 -9 -22 20 -8 10 18 24 4 13 -10 24 -35 3
0000a0 1c ec 0f 0b 0e 06 e7 0a 0b 1b ed e4 09 ec 0f dd
       28 -20 15 11 14 6 -25 10 11 27 -19 -28 9 -20 15 -35
0000b0 32 0f d4 f2 09 0d 17 16 f3 ef 00 f1 3f f1 e2 eb
       50 15 -44 -14 9 13 23 22 -13 -17 0 -15 63 -15 -30 -21
0000c0 e6 01 f9 ef fa eb f3 e0 f5 e8 e7 11 00 0d f8 e4
       -26 1 -7 -17 -6 -21 -13 -32 -11 -24 -25 17 0 13 -8 -28
0000d0 1b d2 19 0e 04 f4 fa 2b 56 e4 24 1a 3e 09 18 0f
       27 -46 25 14 4 -12 -6 43 86 -28 36 26 62 9 24 15
0000e0 ff ca e3 f3 d9 2a 08 06 2a d5 e7 c1 2c 12 2c 1d
       -1 -54 -29 -13 -39 42 8 6 42 -43 -25 -63 44 18 44 29
0000f0 df 19 cf 07 08 08 fa 18 0d 2a c2 e6 b8 36 bb 04
       -33 25 -49 7 8 8 -6 24 13 42 -62 -26 -72 54 -69 4

recog/cnn/conv2d_3/Conv2D i1 [224, 3, 3, 156]
000000 fb f8 f1 11 fb 0d fa e9 12 de e7 03 0b 1b 2f 06
       -5 -8 -15 17 -5 13 -6 -23 18 -34 -25 3 11 27 47 6
000010 03 0d fa d0 18 0a fc f5 fd 01 0a 01 01 fe 1e f8
       3 13 -6 -48 24 10 -4 -11 -3 1 10 1 1 -2 30 -8
000020 f6 0f 04 03 fe 04 f1 1d e8 e6 05 da fe fa eb 02
       -10 15 4 3 -2 4 -15 29 -24 -26 5 -38 -2 -6 -21 2
000030 f6 ff 10 1d e8 31 05 df 1f 00 03 0d fb 02 00 08
       -10 -1 16 29 -24 49 5 -33 31 0 3 13 -5 2 0 8
000040 0d 03 fa 08 0f 0f f2 09 14 14 dd 2b f7 06 08 0e
       13 3 -6 8 15 15 -14 9 20 20 -35 43 -9 6 8 14
000050 ea f7 0f 03 02 11 ed ff fe e3 07 0e ff 09 1a 02
       -22 -9 15 3 2 17 -19 -1 -2 -29 7 14 -1 9 26 2
000060 10 f6 f8 06 e7 f3 07 0b ec ff e8 eb 21 f5 fb ff
       16 -10 -8 6 -25 -13 7 11 -20 -1 -24 -21 33 -11 -5 -1
000070 0f f2 fe ec 0b e3 eb 2c fe f3 13 ec fa f2 f9 fc
       15 -14 -2 -20 11 -29 -21 44 -2 -13 19 -20 -6 -14 -7 -4
000080 17 f9 e9 ff f6 12 15 09 12 0d 07 09 de e1 26 e5
       23 -7 -23 -1 -10 18 21 9 18 13 7 9 -34 -31 38 -27
000090 f9 fd f9 fe 05 f5 1c 05 ff fa 21 0d 08 fb 14 19
       -7 -3 -7 -2 5 -11 28 5 -1 -6 33 13 8 -5 20 25
0000a0 18 04 09 0a fe 15 1f de 0e 1c f3 db 0a e7 d3 dd
       24 4 9 10 -2 21 31 -34 14 28 -13 -37 10 -25 -45 -35
0000b0 c0 07 db c6 0a b1 f5 2e 16 05 1a 15 e9 b8 fa e5
       -64 7 -37 -58 10 -79 -11 46 22 5 26 21 -23 -72 -6 -27
0000c0 17 fc fb 24 e9 00 1d 33 da fd f1 00 04 ce c3 14
       23 -4 -5 36 -23 0 29 51 -38 -3 -15 0 4 -50 -61 20
0000d0 fa 19 eb da ef 35 e9 f9 1c ff c7 ff d6 fa 06 28
       -6 25 -21 -38 -17 53 -23 -7 28 -1 -57 -1 -42 -6 6 40
0000e0 2d f2 1f 81 ea ea f5 e8 e2 35 28 f3 fd df 00 fa
       45 -14 31 -127 -22 -22 -11 -24 -30 53 40 -13 -3 -33 0 -6
0000f0 f7 16 25 03 02 0a 07 07 f2 f1 08 24 fe eb 05 12
       -9 22 37 3 2 10 7 7 -14 -15 8 36 -2 -21 5 18

recog/cnn/conv2d_4/Conv2D i1 [164, 1, 1, 320]
000000 02 02 0a 08 16 09 f8 10 08 ec fe f8 13 05 13 f3
       2 2 10 8 22 9 -8 16 8 -20 -2 -8 19 5 19 -13
000010 15 07 05 fd 07 0a eb 0f 17 08 16 0b f4 06 ed f1
       21 7 5 -3 7 10 -21 15 23 8 22 11 -12 6 -19 -15
000020 ff e8 ee f9 f7 f7 fd 06 17 fa fb ff fa 01 09 05
       -1 -24 -18 -7 -9 -9 -3 6 23 -6 -5 -1 -6 1 9 5
000030 13 08 14 14 f6 fd 01 ee fb eb 09 f4 11 f3 01 e8
       19 8 20 20 -10 -3 1 -18 -5 -21 9 -12 17 -13 1 -24
000040 e5 ff 07 fb 06 f6 1d 25 0f fc f4 f3 01 0d ea 0b
       -27 -1 7 -5 6 -10 29 37 15 -4 -12 -13 1 13 -22 11
000050 08 10 0a 04 06 0f 0c 09 f8 03 0c 00 f7 08 12 fa
       8 16 10 4 6 15 12 9 -8 3 12 0 -9 8 18 -6
000060 f4 0d 15 05 0b f4 00 ee f5 11 fe ec ff ec f3 e0
       -12 13 21 5 11 -12 0 -18 -11 17 -2 -20 -1 -20 -13 -32
000070 06 f3 04 1c ed fc 04 04 02 f8 ee 03 04 fd 0a 02
       6 -13 4 28 -19 -4 4 4 2 -8 -18 3 4 -3 10 2
000080 ff f3 07 02 48 fc e8 03 05 02 07 f7 f5 f2 0f fb
       -1 -13 7 2 72 -4 -24 3 5 2 7 -9 -11 -14 15 -5
000090 ff 03 22 fc ff 0f 0d f8 fd fb f7 fc 08 04 ff 04
       -1 3 34 -4 -1 15 13 -8 -3 -5 -9 -4 8 4 -1 4
0000a0 03 19 04 f4 fa 1a ef 03 1a f6 00 ec f7 f0 00 fe
       3 25 4 -12 -6 26 -17 3 26 -10 0 -20 -9 -16 0 -2
0000b0 fa d2 f9 06 0c fb ed 05 09 07 0c f9 fc f7 f0 16
       -6 -46 -7 6 12 -5 -19 5 9 7 12 -7 -4 -9 -16 22
0000c0 ee 13 f0 01 10 f7 fd fa 0c f9 0b 0a 07 03 fe 02
       -18 19 -16 1 16 -9 -3 -6 12 -7 11 10 7 3 -2 2
0000d0 ef 01 12 fd 07 0b 07 f8 fd f5 08 f4 00 f8 04 ef
       -17 1 18 -3 7 11 7 -8 -3 -11 8 -12 0 -8 4 -17
0000e0 e6 ef fa f6 f2 cd ed 02 e8 fe c5 1c 10 03 0e 13
       -26 -17 -6 -10 -14 -51 -19 2 -24 -2 -59 28 16 3 14 19
0000f0 35 fe f1 47 15 c9 f0 1a 1c f2 26 1b f1 fa e8 d6
       53 -2 -15 71 21 -55 -16 26 28 -14 38 27 -15 -6 -24 -42
