system/system/saiv/textrecognition/stride/mSTR_Korean_CNN.tflite (tflite, 622720 bytes, 11 tensors)

recog/cnn/GSE_B_2_fully_connected1/bias i1 [9] scale=0.0023842447 zero_point=0
000000 ef 29 74 7f 69 1b ef 58 f9
       -0.04053216 0.09775403 0.27657238 0.30279908 0.2503457 0.0643746 -0.04053216 0.20981354 -0.016689712

recog/cnn/GSE_A_1/GSE_A_1_fully_connected1/GSE_A_1_fully_connected1/Tensordot/MatMul i1 [6, 96] scale=0.011330081 zero_point=0
000000 08 06 f3 11 12 0a ef 0b f4 0b 0c 00 ff ea 05 f7
       0.09064065 0.06798048 -0.14729105 0.19261138 0.20394146 0.113300815 -0.19261138 0.12463089 -0.13596097 0.12463089 0.13596097 0.0 -0.011330081 -0.24926178 0.056650408 -0.10197073
000010 f8 fa 0c 0a ef 10 f1 fc ee fb fb f9 f2 ee ee fb
       -0.09064065 -0.06798048 0.13596097 0.113300815 -0.19261138 0.1812813 -0.16995122 -0.045320325 -0.20394146 -0.056650408 -0.056650408 -0.079310566 -0.15862113 -0.20394146 -0.20394146 -0.056650408
000020 0a fc f8 f2 0a f2 0d f3 f0 f7 06 f7 ef f0 f6 04
       0.113300815 -0.045320325 -0.09064065 -0.15862113 0.113300815 -0.15862113 0.14729105 -0.14729105 -0.1812813 -0.10197073 0.06798048 -0.10197073 -0.19261138 -0.1812813 -0.113300815 0.045320325
000030 f2 f6 fe f7 06 03 11 05 f6 00 f9 f9 07 fe ec f1
       -0.15862113 -0.113300815 -0.022660162 -0.10197073 0.06798048 0.03399024 0.19261138 0.056650408 -0.113300815 0.0 -0.079310566 -0.079310566 0.079310566 -0.022660162 -0.22660163 -0.16995122
000040 ef eb ee f1 0c 01 f2 f1 ef 0e 08 ee e8 fc 03 fb
       -0.19261138 -0.2379317 -0.20394146 -0.16995122 0.13596097 0.011330081 -0.15862113 -0.16995122 -0.19261138 0.15862113 0.09064065 -0.20394146 -0.27192193 -0.045320325 0.03399024 -0.056650408
000050 fc f5 e9 0a ec 09 06 f1 fe ed 08 fe f9 ec f4 e8
       -0.045320325 -0.12463089 -0.26059186 0.113300815 -0.22660163 0.10197073 0.06798048 -0.16995122 -0.022660162 -0.21527155 0.09064065 -0.022660162 -0.079310566 -0.22660163 -0.13596097 -0.27192193
000060 0e e5 14 f9 f1 03 1c 4c 36 f4 f3 f9 0c ec f3 ee
       0.15862113 -0.3059122 0.22660163 -0.079310566 -0.16995122 0.03399024 0.31724226 0.8610862 0.6118244 -0.13596097 -0.14729105 -0.079310566 0.13596097 -0.22660163 -0.14729105 -0.20394146
000070 df 0c 04 03 13 f3 ed fb 0c 0b e1 f8 f6 e9 11 07
       -0.37389266 0.13596097 0.045320325 0.03399024 0.21527155 -0.14729105 -0.21527155 -0.056650408 0.13596097 0.12463089 -0.35123253 -0.09064065 -0.113300815 -0.26059186 0.19261138 0.079310566
000080 0a 03 0a fe 17 ef fc d0 07 f5 2c 11 e5 f1 09 23
       0.113300815 0.03399024 0.113300815 -0.022660162 0.26059186 -0.19261138 -0.045320325 -0.54384387 0.079310566 -0.12463089 0.49852356 0.19261138 -0.3059122 -0.16995122 0.10197073 0.39655283
000090 1b d7 1c 25 d9 d1 01 17 05 f1 0d f9 e0 f4 01 fc
       0.3059122 -0.46453333 0.31724226 0.419213 -0.44187316 -0.5325138 0.011330081 0.26059186 0.056650408 -0.16995122 0.14729105 -0.079310566 -0.3625626 -0.13596097 0.011330081 -0.045320325
0000a0 df f7 fa 01 04 df f5 1f e2 fd df e4 fa 23 f9 1b
       -0.37389266 -0.10197073 -0.06798048 0.011330081 0.045320325 -0.37389266 -0.12463089 0.35123253 -0.33990243 -0.03399024 -0.37389266 -0.31724226 -0.06798048 0.39655283 -0.079310566 0.3059122
0000b0 e9 08 18 eb 15 0d e2 09 f7 08 18 04 09 ef e2 f4
       -0.26059186 0.09064065 0.27192193 -0.2379317 0.2379317 0.14729105 -0.33990243 0.10197073 -0.10197073 0.09064065 0.27192193 0.045320325 0.10197073 -0.19261138 -0.33990243 -0.13596097
0000c0 fd f1 05 c2 f9 45 f0 21 1a f0 07 f4 04 01 fd fb
       -0.03399024 -0.16995122 0.056650408 -0.70246506 -0.079310566 0.7817756 -0.1812813 0.37389266 0.2945821 -0.1812813 0.079310566 -0.13596097 0.045320325 0.011330081 -0.03399024 -0.056650408
0000d0 e7 15 ff ff 10 c7 10 ca 36 f3 07 fc 08 1c fa 0a
       -0.28325203 0.2379317 -0.011330081 -0.011330081 0.1812813 -0.6458146 0.1812813 -0.6118244 0.6118244 -0.14729105 0.079310566 -0.045320325 0.09064065 0.31724226 -0.06798048 0.113300815
0000e0 27 f7 fe f3 16 05 fe 09 eb 0d fe e2 f0 29 1b 2a
       0.44187316 -0.10197073 -0.022660162 -0.14729105 0.24926178 0.056650408 -0.022660162 0.10197073 -0.2379317 0.14729105 -0.022660162 -0.33990243 -0.1812813 0.46453333 0.3059122 0.4758634
0000f0 fa e9 7f 05 0c d5 f8 26 d0 20 1b fc fc 07 07 13
       -0.06798048 -0.26059186 1.4389203 0.056650408 0.13596097 -0.4871935 -0.09064065 0.4305431 -0.54384387 0.3625626 0.3059122 -0.045320325 -0.045320325 0.079310566 0.079310566 0.21527155

recog/cnn/GSE_A_1/GSE_A_1_fully_connected2/GSE_A_1_fully_connected2/Tensordot/MatMul i1 [96, 6] scale=0.023166044 zero_point=0
000000 0a f5 07 f1 00 fb 00 2e 15 12 36 fa 04 ed ca f0
       0.23166044 -0.2548265 0.1621623 -0.34749067 0.0 -0.11583022 0.0 1.0656381 0.4864869 0.4169888 1.2509663 -0.13899626 0.092664175 -0.44015482 -1.2509663 -0.3706567
000010 16 00 02 fe fd fd 0a 00 fe fd 0c f9 01 04 09 6d
       0.509653 0.0 0.046332087 -0.046332087 -0.06949813 -0.06949813 0.23166044 0.0 -0.046332087 -0.06949813 0.27799252 -0.1621623 0.023166044 0.092664175 0.2084944 2.5250988
000020 53 76 64 08 08 f4 0a 00 f8 01 fe 7e 63 7f 60 09
       1.9227816 2.7335932 2.3166044 0.18532835 0.18532835 -0.27799252 0.23166044 0.0 -0.18532835 0.023166044 -0.046332087 2.9189215 2.2934384 2.9420877 2.2239401 0.2084944
000030 04 f3 fc ff 02 05 0a 26 27 24 2a 07 fe ff fa 00
       0.092664175 -0.30115858 -0.092664175 -0.023166044 0.046332087 0.11583022 0.23166044 0.88030964 0.9034757 0.8339776 0.9729738 0.1621623 -0.046332087 -0.023166044 -0.13899626 0.0
000040 06 03 00 f9 06 fd 05 fa 02 f4 fc 00 00 0b 02 fd
       0.13899626 0.06949813 0.0 -0.1621623 0.13899626 -0.06949813 0.11583022 -0.13899626 0.046332087 -0.27799252 -0.092664175 0.0 0.0 0.2548265 0.046332087 -0.06949813
000050 12 eb ea f9 fa 10 f4 09 10 fa ff 09 fe fe 06 08
       0.4169888 -0.4864869 -0.509653 -0.1621623 -0.13899626 0.3706567 -0.27799252 0.2084944 0.3706567 -0.13899626 -0.023166044 0.2084944 -0.046332087 -0.046332087 0.13899626 0.18532835
000060 03 07 fa 00 0b f7 01 7b 6a 79 61 03 0b f2 17 dd
       0.06949813 0.1621623 -0.13899626 0.0 0.2548265 -0.2084944 0.023166044 2.8494234 2.4556007 2.8030913 2.2471063 0.06949813 0.2548265 -0.3243246 0.53281903 -0.8108115
000070 04 f8 0b 36 1d 27 29 01 fc fd 01 fe eb fe 06 01
       0.092664175 -0.18532835 0.2548265 1.2509663 0.6718153 0.9034757 0.94980776 0.023166044 -0.092664175 -0.06949813 0.023166044 -0.046332087 -0.4864869 -0.046332087 0.13899626 0.023166044
000080 01 fc 01 0a f7 46 2f 4c 45 06 00 5b 71 4a 62 01
       0.023166044 -0.092664175 0.023166044 0.23166044 -0.2084944 1.621623 1.088804 1.7606193 1.598457 0.13899626 0.0 2.10811 2.617763 1.7142873 2.2702723 0.023166044
000090 06 fb f4 fb 10 ff f9 00 15 ec 0c fc 04 01 01 fa
       0.13899626 -0.11583022 -0.27799252 -0.11583022 0.3706567 -0.023166044 -0.1621623 0.0 0.4864869 -0.46332088 0.27799252 -0.092664175 0.092664175 0.023166044 0.023166044 -0.13899626
0000a0 08 f6 0a 2c 1c 36 42 09 ff ea cd eb 08 f8 00 fb
       0.18532835 -0.23166044 0.23166044 1.019306 0.6486492 1.2509663 1.5289589 0.2084944 -0.023166044 -0.509653 -1.1814682 -0.4864869 0.18532835 -0.18532835 0.0 -0.11583022
0000b0 02 fe fd f6 02 fd 08 f9 ff 07 fe f0 ee da e0 09
       0.046332087 -0.046332087 -0.06949813 -0.23166044 0.046332087 -0.06949813 0.18532835 -0.1621623 -0.023166044 0.1621623 -0.046332087 -0.3706567 -0.4169888 -0.88030964 -0.7413134 0.2084944
0000c0 fd fc f6 02 06 03 01 00 0c eb d5 0a fe 00 fe ff
       -0.06949813 -0.092664175 -0.23166044 0.046332087 0.13899626 0.06949813 0.023166044 0.0 0.27799252 -0.4864869 -0.9961399 0.23166044 -0.046332087 0.0 -0.046332087 -0.023166044
0000d0 fe 08 fc f5 ff fd 01 0a fb fb fd fd 0a 01 fc fc
       -0.046332087 0.18532835 -0.092664175 -0.2548265 -0.023166044 -0.06949813 0.023166044 0.23166044 -0.11583022 -0.11583022 -0.06949813 -0.06949813 0.23166044 0.023166044 -0.092664175 -0.092664175
0000e0 ff 01 fc fa 06 fe 06 fb fe 00 f7 09 fc fd 00 05
       -0.023166044 0.023166044 -0.092664175 -0.13899626 0.13899626 -0.046332087 0.13899626 -0.11583022 -0.046332087 0.0 -0.2084944 0.2084944 -0.092664175 -0.06949813 0.0 0.11583022
0000f0 02 f7 10 fb f9 06 f5 f6 00 01 04 08 05 ef 05 00
       0.046332087 -0.2084944 0.3706567 -0.11583022 -0.1621623 0.13899626 -0.2548265 -0.23166044 0.0 0.023166044 0.092664175 0.18532835 0.11583022 -0.39382273 0.11583022 0.0

recog/cnn/GSE_B_2/GSE_B_2_fully_connected1/GSE_B_2_fully_connected1/Tensordot/MatMul i1 [9, 156] scale=0.010565413 zero_point=0
000000 03 02 00 05 f3 ff fc f1 eb f4 f3 ff f0 eb f3 f3
       0.031696238 0.021130826 0.0 0.052827068 -0.13735037 -0.010565413 -0.042261653 -0.1584812 -0.22187367 -0.12678495 -0.13735037 -0.010565413 -0.16904661 -0.22187367 -0.13735037 -0.13735037
000010 f4 fb 0c f3 0d 0a 0c fe f6 fd 0b f6 f3 01 f0 0b
       -0.12678495 -0.052827068 0.12678495 -0.13735037 0.13735037 0.105654135 0.12678495 -0.021130826 -0.105654135 -0.031696238 0.11621954 -0.105654135 -0.13735037 0.010565413 -0.16904661 0.11621954
000020 f8 f0 f7 f5 05 02 06 f3 ec 06 00 fe f7 ec f2 0e
       -0.084523305 -0.16904661 -0.09508872 -0.11621954 0.052827068 0.021130826 0.063392475 -0.13735037 -0.21130827 0.063392475 0.0 -0.021130826 -0.09508872 -0.21130827 -0.14791578 0.14791578
000030 0b ee f3 ec 0c f4 fd ff 04 f4 08 03 fe ed ff ea
       0.11621954 -0.19017744 -0.13735037 -0.21130827 0.12678495 -0.12678495 -0.031696238 -0.010565413 0.042261653 -0.12678495 0.084523305 0.031696238 -0.021130826 -0.20074286 -0.010565413 -0.23243909
000040 f3 f5 fa fe fb 0b f5 f0 01 f4 fb ee 01 10 f1 03
       -0.13735037 -0.11621954 -0.063392475 -0.021130826 -0.052827068 0.11621954 -0.11621954 -0.16904661 0.010565413 -0.12678495 -0.052827068 -0.19017744 0.010565413 0.16904661 -0.1584812 0.031696238
000050 f2 01 06 05 ec ec f3 f5 f9 11 ff ed f8 ec ec 0e
       -0.14791578 0.010565413 0.063392475 0.052827068 -0.21130827 -0.21130827 -0.13735037 -0.11621954 -0.07395789 0.17961203 -0.010565413 -0.20074286 -0.084523305 -0.21130827 -0.21130827 0.14791578
000060 0b 04 eb f6 fd fb fe 08 fb ff f1 07 fb fb f7 f9
       0.11621954 0.042261653 -0.22187367 -0.105654135 -0.031696238 -0.052827068 -0.021130826 0.084523305 -0.052827068 -0.010565413 -0.1584812 0.07395789 -0.052827068 -0.052827068 -0.09508872 -0.07395789
000070 05 f8 fa f0 f8 01 ff ed eb f7 eb 0a f3 0a ed fe
       0.052827068 -0.084523305 -0.063392475 -0.16904661 -0.084523305 0.010565413 -0.010565413 -0.20074286 -0.22187367 -0.09508872 -0.22187367 0.105654135 -0.13735037 0.105654135 -0.20074286 -0.021130826
000080 f5 f7 f1 05 07 f9 0a 0b 0f 0d ff 08 00 f2 ea fe
       -0.11621954 -0.09508872 -0.1584812 0.052827068 0.07395789 -0.07395789 0.105654135 0.11621954 0.1584812 0.13735037 -0.010565413 0.084523305 0.0 -0.14791578 -0.23243909 -0.021130826
000090 0d 0a 0d f0 ea fc f5 01 f4 04 0a 04 df 05 ef f8
       0.13735037 0.105654135 0.13735037 -0.16904661 -0.23243909 -0.042261653 -0.11621954 0.010565413 -0.12678495 0.042261653 0.105654135 0.042261653 -0.34865862 0.052827068 -0.17961203 -0.084523305
0000a0 13 fc df 0d f8 02 fe 1f 22 11 44 e3 1e fe 27 17
       0.20074286 -0.042261653 -0.34865862 0.13735037 -0.084523305 0.021130826 -0.021130826 0.32752782 0.35922405 0.17961203 0.7184481 -0.306397 0.3169624 -0.021130826 0.4120511 0.2430045
0000b0 03 ff e8 18 f6 fd fd 1f 05 f4 0f 08 0f f7 e5 eb
       0.031696238 -0.010565413 -0.2535699 0.2535699 -0.105654135 -0.031696238 -0.031696238 0.32752782 0.052827068 -0.12678495 0.1584812 0.084523305 0.1584812 -0.09508872 -0.28526616 -0.22187367
0000c0 fb f0 0a f6 fb 0c 1f eb 0d f2 f6 1c 19 11 f3 26
       -0.052827068 -0.16904661 0.105654135 -0.105654135 -0.052827068 0.12678495 0.32752782 -0.22187367 0.13735037 -0.14791578 -0.105654135 0.29583156 0.26413533 0.17961203 -0.13735037 0.4014857
0000d0 cf 00 04 f1 0d 03 b3 f4 fa e0 f0 09 f4 14 05 10
       -0.51770526 0.0 0.042261653 -0.1584812 0.13735037 0.031696238 -0.8135368 -0.12678495 -0.063392475 -0.33809322 -0.16904661 0.09508872 -0.12678495 0.21130827 0.052827068 0.16904661
0000e0 f2 0d fd ea eb fd 1e 10 02 ee 16 00 fb 18 da 15
       -0.14791578 0.13735037 -0.031696238 -0.23243909 -0.22187367 -0.031696238 0.3169624 0.16904661 0.021130826 -0.19017744 0.23243909 0.0 -0.052827068 0.2535699 -0.4014857 0.22187367
0000f0 d2 2c e9 05 08 0e 0d 11 fc df e8 91 fa 11 0d f2
       -0.486009 0.46487817 -0.2430045 0.052827068 0.084523305 0.14791578 0.13735037 0.17961203 -0.042261653 -0.34865862 -0.2535699 -1.1727608 -0.063392475 0.17961203 0.13735037 -0.14791578

recog/cnn/GSE_B_2/GSE_B_2_fully_connected2/GSE_B_2_fully_connected2/Tensordot/MatMul i1 [156, 9] scale=0.012552272 zero_point=0
000000 00 f4 f7 e3 04 f8 01 02 05 f4 11 f9 e9 f0 fd 0a
       0.0 -0.15062726 -0.11297044 -0.36401588 0.050209086 -0.10041817 0.012552272 0.025104543 0.06276136 -0.15062726 0.21338862 -0.087865904 -0.28870225 -0.20083635 -0.037656814 0.12552272
000010 f9 04 03 07 fc da 08 f9 05 fa f8 f6 ed e9 fd fc
       -0.087865904 0.050209086 0.037656814 0.087865904 -0.050209086 -0.47698632 0.10041817 -0.087865904 0.06276136 -0.07531363 -0.10041817 -0.12552272 -0.23849316 -0.28870225 -0.037656814 -0.050209086
000020 ff 01 f3 f6 f1 05 ed 11 e9 f2 f2 dd fc fb 00 f6
       -0.012552272 0.012552272 -0.16317953 -0.12552272 -0.18828407 0.06276136 -0.23849316 0.21338862 -0.28870225 -0.17573181 -0.17573181 -0.4393295 -0.050209086 -0.06276136 0.0 -0.12552272
000030 e7 fa 07 0f ff 0a f8 0a e4 f4 ff fb 03 07 07 06
       -0.3138068 -0.07531363 0.087865904 0.18828407 -0.012552272 0.12552272 -0.10041817 0.12552272 -0.35146362 -0.15062726 -0.012552272 -0.06276136 0.037656814 0.087865904 0.087865904 0.07531363
000040 0b f4 f6 fa f3 0f f4 fd 05 13 f9 ec f7 f4 f7 fa
       0.138075 -0.15062726 -0.12552272 -0.07531363 -0.16317953 0.18828407 -0.15062726 -0.037656814 0.06276136 0.23849316 -0.087865904 -0.25104544 -0.11297044 -0.15062726 -0.11297044 -0.07531363
000050 0a f9 09 f1 e7 f8 fb 09 05 f4 0d 0c fb e9 02 f5
       0.12552272 -0.087865904 0.11297044 -0.18828407 -0.3138068 -0.10041817 -0.06276136 0.11297044 0.06276136 -0.15062726 0.16317953 0.15062726 -0.06276136 -0.28870225 0.025104543 -0.138075
000060 05 f9 05 08 e6 fc 03 f6 f4 f1 ee 01 02 0a 01 ee
       0.06276136 -0.087865904 0.06276136 0.10041817 -0.32635906 -0.050209086 0.037656814 -0.12552272 -0.15062726 -0.18828407 -0.22594088 0.012552272 0.025104543 0.12552272 0.012552272 -0.22594088
000070 f3 04 f9 fb 08 08 14 c2 ff 13 e2 fe d6 08 10 f7
       -0.16317953 0.050209086 -0.087865904 -0.06276136 0.10041817 0.10041817 0.25104544 -0.77824086 -0.012552272 0.23849316 -0.37656814 -0.025104543 -0.5271954 0.10041817 0.20083635 -0.11297044
000080 d4 f2 09 f6 01 db 03 04 01 f8 f7 f3 fc ff f9 00
       -0.5523 -0.17573181 0.11297044 -0.12552272 0.012552272 -0.46443406 0.037656814 0.050209086 0.012552272 -0.10041817 -0.11297044 -0.16317953 -0.050209086 -0.012552272 -0.087865904 0.0
000090 05 e3 ca fb 20 ee fd f9 f2 ef 09 ce 16 ef f2 01
       0.06276136 -0.36401588 -0.67782265 -0.06276136 0.4016727 -0.22594088 -0.037656814 -0.087865904 -0.17573181 -0.21338862 0.11297044 -0.6276136 0.27615 -0.21338862 -0.17573181 0.012552272
0000a0 07 0c f9 fc db 05 ce e2 01 22 fa 0c 03 fc d2 23
       0.087865904 0.15062726 -0.087865904 -0.050209086 -0.46443406 0.06276136 -0.6276136 -0.37656814 0.012552272 0.42677724 -0.07531363 0.15062726 0.037656814 -0.050209086 -0.5774045 0.4393295
0000b0 d5 ff d9 fa fa fd fa e8 f9 f8 04 f9 0c f4 1a ef
       -0.53974766 -0.012552272 -0.48953858 -0.07531363 -0.07531363 -0.037656814 -0.07531363 -0.3012545 -0.087865904 -0.10041817 0.050209086 -0.087865904 0.15062726 -0.15062726 0.32635906 -0.21338862
0000c0 f6 e3 f9 02 0e 04 f8 0d f9 f6 f2 00 0a e7 0c fa
       -0.12552272 -0.36401588 -0.087865904 0.025104543 0.17573181 0.050209086 -0.10041817 0.16317953 -0.087865904 -0.12552272 -0.17573181 0.0 0.12552272 -0.3138068 0.15062726 -0.07531363
0000d0 f3 00 01 f4 fa f9 f5 fe 0e f1 f3 f5 01 03 04 e6
       -0.16317953 0.0 0.012552272 -0.15062726 -0.07531363 -0.087865904 -0.138075 -0.025104543 0.17573181 -0.18828407 -0.16317953 -0.138075 0.012552272 0.037656814 0.050209086 -0.32635906
0000e0 f1 fb fb f8 f1 ec fc fc ff 04 0b 08 fc ef f4 ff
       -0.18828407 -0.06276136 -0.06276136 -0.10041817 -0.18828407 -0.25104544 -0.050209086 -0.050209086 -0.012552272 0.050209086 0.138075 0.10041817 -0.050209086 -0.21338862 -0.15062726 -0.012552272
0000f0 0e f7 05 08 f7 e1 08 e6 05 11 c6 0c 08 03 fb e8
       0.17573181 -0.11297044 0.06276136 0.10041817 -0.11297044 -0.38912043 0.10041817 -0.32635906 0.06276136 0.21338862 -0.72803175 0.15062726 0.10041817 0.037656814 -0.06276136 -0.3012545

recog/cnn/conv2d/Conv2D i1 [32, 3, 3, 3]
000000 6e d8 ba 56 d4 d6 bf 14 36 64 d7 b2 03 ff 21 81
       110 -40 -70 86 -44 -42 -65 20 54 100 -41 -78 3 -1 33 -127
000010 34 35 31 e5 dd a9 24 45 bf 2b 11 32 69 c9 cc c1
       52 53 49 -27 -35 -87 36 69 -65 43 17 50 105 -55 -52 -63
000020 0f e8 be 57 60 7f d7 d4 de ed be 93 1d 37 32 df
       15 -24 -66 87 96 127 -41 -44 -34 -19 -66 -109 29 55 50 -33
000030 2a 21 f9 c9 d7 1b 1b 79 e5 63 7f 1e e8 ea f4 3e
       42 33 -7 -55 -41 27 27 121 -27 99 127 30 -24 -22 -12 62
000040 78 09 07 ad e5 c1 b4 fe f0 e0 fb af 92 ff f6 d4
       120 9 7 -83 -27 -63 -76 -2 -16 -32 -5 -81 -110 -1 -10 -44
000050 20 03 f8 ed ef fc 17 07 18 f6 16 d4 11 e4 99 db
       32 3 -8 -19 -17 -4 23 7 24 -10 22 -44 17 -28 -103 -37
000060 bf 99 1c e7 35 02 44 7f 14 23 39 e6 bb 0f 33 9f
       -65 -103 28 -25 53 2 68 127 20 35 57 -26 -69 15 51 -97
000070 df 7f 2d e6 ea 9f 09 5a 3c af 20 3e 3d 86 dd fb
       -33 127 45 -26 -22 -97 9 90 60 -81 32 62 61 -122 -35 -5
000080 24 72 08 89 11 33 b8 39 61 27 4c 7f 36 13 25 08
       36 114 8 -119 17 51 -72 57 97 39 76 127 54 19 37 8
000090 c0 a5 e8 af 87 d4 ed cf f1 02 f5 f4 0e 01 fe fd
       -64 -91 -24 -81 -121 -44 -19 -49 -15 2 -11 -12 14 1 -2 -3
0000a0 0d 00 1c f2 ed a0 01 09 56 48 31 30 eb ef 90 81
       13 0 28 -14 -19 -96 1 9 86 72 49 48 -21 -17 -112 -127
0000b0 b3 0a 7a 4d 41 12 02 e9 a8 be fa 28 2c 18 f6 f3
       -77 10 122 77 65 18 2 -23 -88 -66 -6 40 44 24 -10 -13
0000c0 ff 28 d9 de 38 ea d0 44 ea a5 51 08 e9 23 f4 12
       -1 40 -39 -34 56 -22 -48 68 -22 -91 81 8 -23 35 -12 18
0000d0 d2 20 5e 81 24 3e a2 23 d1 e2 4d ac d5 7f d9 d2
       -46 32 94 -127 36 62 -94 35 -47 -30 77 -84 -43 127 -39 -46
0000e0 54 14 09 e7 0a 04 f1 09 fa fe 37 16 b2 40 31 90
       84 20 9 -25 10 4 -15 9 -6 -2 55 22 -78 64 49 -112
0000f0 0c 29 ca 2b 17 3a cc 99 db e7 07 00 de a6 c7 e1
       12 41 -54 43 23 58 -52 -103 -37 -25 7 0 -34 -90 -57 -31

recog/cnn/extra/Conv2D i1 [64, 3, 3, 32]
000000 0d 09 e9 fc fa 00 eb f5 ec dd 0b 09 f7 0f f0 13
       13 9 -23 -4 -6 0 -21 -11 -20 -35 11 9 -9 15 -16 19
000010 01 f1 f3 12 df f9 f9 04 f2 14 f5 0f 05 03 f3 07
       1 -15 -13 18 -33 -7 -7 4 -14 20 -11 15 5 3 -13 7
000020 52 d5 54 c0 7f fd a9 2d 09 4d b4 de 4e ad 33 51
       82 -43 84 -64 127 -3 -87 45 9 77 -76 -34 78 -83 51 81
000030 13 5b 03 88 34 4f c7 e4 04 dc ef 99 b1 2b 43 11
       19 91 3 -120 52 79 -57 -28 4 -36 -17 -103 -79 43 67 17
000040 36 f1 4b fd 6e 08 ce 04 ce 36 e9 e1 3d be f4 36
       54 -15 75 -3 110 8 -50 4 -50 54 -23 -31 61 -66 -12 54
000050 16 47 f4 ae 11 26 c7 d1 f2 ec ee cd cc 00 49 1f
       22 71 -12 -82 17 38 -57 -47 -14 -20 -18 -51 -52 0 73 31
000060 fd f4 f7 ef fc f4 04 f3 09 f1 08 f8 ef fd f4 13
       -3 -12 -9 -17 -4 -12 4 -13 9 -15 8 -8 -17 -3 -12 19
000070 0f 13 f4 ea 05 08 0a 07 ec 04 f5 e2 f2 08 02 03
       15 19 -12 -22 5 8 10 7 -20 4 -11 -30 -14 8 2 3
000080 18 fb 27 ff 0e 09 e2 1d 05 39 ed eb 2e fa 17 f8
       24 -5 39 -1 14 9 -30 29 5 57 -19 -21 46 -6 23 -8
000090 01 29 f7 f5 24 e6 e7 06 23 ef 07 11 f8 f4 0f 06
       1 41 -9 -11 36 -26 -25 6 35 -17 7 17 -8 -12 15 6
0000a0 cb ff cc 2a a6 fc 1e e9 14 f2 17 e1 d1 30 fa ca
       -53 -1 -52 42 -90 -4 30 -23 20 -14 23 -31 -47 48 -6 -54
0000b0 dc d7 e7 4f 19 cc 18 17 fb 03 11 2e 3a d6 eb d0
       -36 -41 -25 79 25 -52 24 23 -5 3 17 46 58 -42 -21 -48
0000c0 eb 02 fc 0c ed f8 10 17 14 de 07 18 ec 1a f4 f1
       -21 2 -4 12 -19 -8 16 23 20 -34 7 24 -20 26 -12 -15
0000d0 fd fa 07 06 f7 f2 12 01 1b 06 02 0d 08 04 f0 fb
       -3 -6 7 6 -9 -14 18 1 27 6 2 13 8 4 -16 -5
0000e0 c2 f9 d3 0f b4 f5 39 e7 21 d4 1b 26 d6 2a fe bd
       -62 -7 -45 15 -76 -11 57 -25 33 -44 27 38 -42 42 -2 -67
0000f0 ed a8 f2 39 f3 ef 1e 1e f5 1a fa 35 23 d0 d5 ee
       -19 -88 -14 57 -13 -17 30 30 -11 26 -6 53 35 -48 -43 -18

recog/cnn/conv2d_1/Conv2D i1 [96, 3, 3, 64]
000000 3f 09 f0 19 e3 15 d1 96 11 3c e3 f4 e3 25 f7 1b
       63 9 -16 25 -29 21 -47 -106 17 60 -29 -12 -29 37 -9 27
000010 ec d9 52 fe 42 b7 04 e9 f7 3f d9 0b f8 ce e0 0e
       -20 -39 82 -2 66 -73 4 -23 -9 63 -39 11 -8 -50 -32 14
000020 08 f8 f3 32 35 e1 21 0d f2 32 ff cc 05 e4 02 fc
       8 -8 -13 50 53 -31 33 13 -14 50 -1 -52 5 -28 2 -4
000030 03 5e 06 45 2c 2a 34 b9 15 f7 10 0b 17 dc 24 d9
       3 94 6 69 44 42 52 -71 21 -9 16 11 23 -36 36 -39
000040 e4 f7 09 db e0 46 fc cc 29 e4 2b 0d ff f1 28 20
       -28 -9 9 -37 -32 70 -4 -52 41 -28 43 13 -1 -15 40 32
000050 fe 27 f0 ee fc 11 de 18 ee ee fd fc 14 0b 38 0a
       -2 39 -16 -18 -4 17 -34 24 -18 -18 -3 -4 20 11 56 10
000060 fc fb 1f 0b 0a c9 0c 10 fd d2 08 f7 10 02 e1 d5
       -4 -5 31 11 10 -55 12 16 -3 -46 8 -9 16 2 -31 -43
000070 2f fb f6 02 e3 0a 00 d5 ee 10 f7 12 d1 e5 4a 0f
       47 -5 -10 2 -29 10 0 -43 -18 16 -9 18 -47 -27 74 15
000080 bc f7 db b6 c7 ee 0c e3 0c c0 06 17 fd 1e f2 fd
       -68 -9 -37 -74 -57 -18 12 -29 12 -64 6 23 -3 30 -14 -3
000090 ce 0b 01 cd 29 df 30 1f e4 e3 fc f4 f8 ef a1 22
       -50 11 1 -51 41 -33 48 31 -28 -29 -4 -12 -8 -17 -95 34
0000a0 2a 13 1a 87 e7 37 c2 0c 04 dd d8 ef 2e 1f 2d aa
       42 19 26 -121 -25 55 -62 12 4 -35 -40 -17 46 31 45 -86
0000b0 04 c9 46 39 d7 25 fc 14 fa 2e 09 ec d4 14 3f 9e
       4 -55 70 57 -41 37 -4 20 -6 46 9 -20 -44 20 63 -98
0000c0 23 ee dc f0 cd f3 13 f1 ed 07 1d eb d8 d8 02 03
       35 -18 -36 -16 -51 -13 19 -15 -19 7 29 -21 -40 -40 2 3
0000d0 e2 ca e9 02 0a 02 cd c5 fd 38 b2 47 1f 03 25 f7
       -30 -54 -23 2 10 2 -51 -59 -3 56 -78 71 31 3 37 -9
0000e0 be d2 ea 23 04 cc 06 ec e6 0a 2f cc 09 e6 2d f9
       -66 -46 -22 35 4 -52 6 -20 -26 10 47 -52 9 -26 45 -7
0000f0 01 eb a8 c0 f5 dc 06 c5 d4 e8 cc fc eb f7 be 12
       1 -21 -88 -64 -11 -36 6 -59 -44 -24 -52 -4 -21 -9 -66 18

recog/cnn/conv2d_2/Conv2D i1 [156, 3, 3, 96]
000000 26 26 ee 18 f6 06 26 15 fb 11 02 f0 f0 00 0b fe
       38 38 -18 24 -10 6 38 21 -5 17 2 -16 -16 0 11 -2
000010 06 f6 06 ef fe dc 0d ed 28 1b e9 f9 0b 0b ee 0f
       6 -10 6 -17 -2 -36 13 -19 40 27 -23 -7 11 11 -18 15
000020 e9 fb 0b f6 e4 36 06 2e f3 ff 21 01 ef fb d0 03
       -23 -5 11 -10 -28 54 6 46 -13 -1 33 1 -17 -5 -48 3
000030 1d 08 fe 0b f5 e4 04 2d ba f0 00 04 03 fa 03 24
       29 8 -2 11 -11 -28 4 45 -70 -16 0 4 3 -6 3 36
000040 30 06 f0 01 e8 ee 16 1c fa 14 f7 de e4 05 b6 f5
       48 6 -16 1 -24 -18 22 28 -6 20 -9 -34 -28 5 -74 -11
000050 0a d2 c8 fb 21 ed 0f 12 fd ee 15 fe f3 0f fe e2
       10 -46 -56 -5 33 -19 15 18 -3 -18 21 -2 -13 15 -2 -30
000060 13 0f e7 f3 f5 ef 0a 07 0a 09 0e 08 ed c3 f3 04
       19 15 -25 -13 -11 -17 10 7 10 9 14 8 -19 -61 -13 4
000070 02 01 ef eb f2 e9 fa 00 20 05 e9 0a df 0e 0d 05
       2 1 -17 -21 -14 -23 -6 0 32 5 -23 10 -33 14 13 5
000080 f3 1c 19 e2 02 0a db 10 13 05 11 0c 0a eb fa 0e
       -13 28 25 -30 2 10 -37 16 19 5 17 12 10 -21 -6 14
000090 02 1c f4 07 f9 f4 eb 0d e9 f3 f8 f9 ec 1b 05 0f
       2 28 -12 7 -7 -12 -21 13 -23 -13 -8 -7 -20 27 5 15
0000a0 f3 01 09 f7 0d bb f1 cf 08 f6 10 18 13 fa 0b 03
       -13 1 9 -9 13 -69 -15 -49 8 -10 16 24 19 -6 11 3
0000b0 f9 fb 24 ef 13 f8 14 1b d9 17 fb fe f1 db 0a e4
       -7 -5 36 -17 19 -8 20 27 -39 23 -5 -2 -15 -37 10 -28
0000c0 f4 e4 f1 de 01 1e fb 03 09 03 ed 0e 16 cd 15 00
       -12 -28 -15 -34 1 30 -5 3 9 3 -19 14 22 -51 21 0
0000d0 ea f6 06 df fd ff f3 e1 10 16 e7 f9 b1 d8 39 09
       -22 -10 6 -33 -3 -1 -13 -31 16 22 -25 -7 -79 -40 57 9
0000e0 07 23 32 b9 f5 f1 e7 0a e3 04 fc f7 f2 0a f1 1e
       7 35 50 -71 -11 -15 -25 10 -29 4 -4 -9 -14 10 -15 30
0000f0 df 1c 2a fe f0 0c fc 0f dc 1a 27 0c 05 22 fa 06
       -33 28 42 -2 -16 12 -4 15 -36 26 39 12 5 34 -6 6

recog/cnn/conv2d_3/Conv2D i1 [224, 3, 3, 156]
000000 eb ea 0c 01 ea 25 00 21 ff ee 00 01 07 06 1e 0c
       -21 -22 12 1 -22 37 0 33 -1 -18 0 1 7 6 30 12
000010 27 ea 09 f9 04 14 07 02 11 ee eb 35 f4 fc dd fd
       39 -22 9 -7 4 20 7 2 17 -18 -21 53 -12 -4 -35 -3
000020 02 fd 06 fe 18 0d 0b 20 00 f8 cc 07 07 00 f3 05
       2 -3 6 -2 24 13 11 32 0 -8 -52 7 7 0 -13 5
000030 0b fc 08 f6 0b 12 e2 01 f9 ec ec 08 d5 10 11 db
       11 -4 8 -10 11 18 -30 1 -7 -20 -20 8 -43 16 17 -37
000040 3e db fd 07 0c 10 01 1b 02 09 09 24 07 08 1d fe
       62 -37 -3 7 12 16 1 27 2 9 9 36 7 8 29 -2
000050 01 0d 1d 09 02 0b 24 fc f5 05 f9 06 e5 f3 f6 ef
       1 13 29 9 2 11 36 -4 -11 5 -7 6 -27 -13 -10 -17
000060 02 fb f2 1e fc f9 07 f0 f0 fa cf eb 07 f5 fa 08
       2 -5 -14 30 -4 -7 7 -16 -16 -6 -49 -21 7 -11 -6 8
000070 15 fd 03 08 f7 fa 10 f3 0e 15 ff 22 fe f7 17 e5
       21 -3 3 8 -9 -6 16 -13 14 21 -1 34 -2 -9 23 -27
000080 ef 03 f5 02 eb 0a 04 03 06 15 f0 00 0f 18 0e e1
       -17 3 -11 2 -21 10 4 3 6 21 -16 0 15 24 14 -31
000090 fb de 1e 05 08 f1 18 11 ed e5 16 ff 36 a0 ea 06
       -5 -34 30 5 8 -15 24 17 -19 -27 22 -1 54 -96 -22 6
0000a0 16 ea 07 f2 ef d7 08 ea 03 23 09 10 1b fd e0 12
       22 -22 7 -14 -17 -41 8 -22 3 35 9 16 27 -3 -32 18
0000b0 e4 fb 08 09 02 bc fe 3d f5 22 fb fc ec 09 fb cb
       -28 -5 8 9 2 -68 -2 61 -11 34 -5 -4 -20 9 -5 -53
0000c0 04 1b 17 17 2f e0 e5 e5 f4 17 bb 07 05 01 06 e2
       4 27 23 23 47 -32 -27 -27 -12 23 -69 7 5 1 6 -30
0000d0 dd c6 1d 20 fe e5 b9 ef 30 29 06 01 20 08 f4 ed
       -35 -58 29 32 -2 -27 -71 -17 48 41 6 1 32 8 -12 -19
0000e0 fb 21 c6 0d 06 00 f4 0f 14 fc ff 31 fe db 30 08
       -5 33 -58 13 6 0 -12 15 20 -4 -1 49 -2 -37 48 8
0000f0 cd e2 1b 0e f2 fc f6 ea f8 08 f8 ca 40 fd cd fb
       -51 -30 27 14 -14 -4 -10 -22 -8 8 -8 -54 64 -3 -51 -5

recog/cnn/conv2d_4/Conv2D i1 [164, 1, 1, 320]
000000 c3 02 03 e9 e3 1b e5 00 18 fe 2c b6 df f1 fe f4
       -61 2 3 -23 -29 27 -27 0 24 -2 44 -74 -33 -15 -2 -12
000010 ec e9 e5 cd ff f8 ee f7 ef 00 f9 06 f6 e7 26 0c
       -20 -23 -27 -51 -1 -8 -18 -9 -17 0 -7 6 -10 -25 38 12
000020 ff 1b da ea e9 0c ee ff ef e0 11 fd fe dc d6 ec
       -1 27 -38 -22 -23 12 -18 -1 -17 -32 17 -3 -2 -36 -42 -20
000030 09 de cb 01 ec 00 ed f3 b2 0e ee ff 11 2a 00 0e
       9 -34 -53 1 -20 0 -19 -13 -78 14 -18 -1 17 42 0 14
000040 27 d6 e8 09 3f 0a 2e 0f 0d fa f6 fc 7f 08 c5 f9
       39 -42 -24 9 63 10 46 15 13 -6 -10 -4 127 8 -59 -7
000050 d1 e9 18 f2 34 11 e5 38 cc 0e 03 13 e9 e2 31 fc
       -47 -23 24 -14 52 17 -27 56 -52 14 3 19 -23 -30 49 -4
000060 da e3 c2 fb 0d fb f7 bb d0 d7 e7 e1 00 15 08 04
       -38 -29 -62 -5 13 -5 -9 -69 -48 -41 -25 -31 0 21 8 4
000070 be ee fa 0e 04 01 3b 0b 05 e7 0a c5 fd 14 1b e1
       -66 -18 -6 14 4 1 59 11 5 -25 10 -59 -3 20 27 -31
000080 d0 19 1b f9 db ef 27 f3 0a f3 ef 0e d3 f1 13 25
       -48 25 27 -7 -37 -17 39 -13 10 -13 -17 14 -45 -15 19 37
000090 e7 fa 06 e9 fd d7 13 b1 f5 16 11 38 f5 07 ec f1
       -25 -6 6 -23 -3 -41 19 -79 -11 22 17 56 -11 7 -20 -15
0000a0 f6 10 e4 0a fa f5 f8 1f de 27 fd ff cd f3 28 02
       -10 16 -28 10 -6 -11 -8 31 -34 39 -3 -1 -51 -13 40 2
0000b0 14 39 f2 dc 00 01 0c fe d0 d1 e9 1c 35 0d 06 09
       20 57 -14 -36 0 1 12 -2 -48 -47 -23 28 53 13 6 9
0000c0 19 ec 17 10 ca f7 03 f5 1c fa 00 f6 ff d1 fc 39
       25 -20 23 16 -54 -9 3 -11 28 -6 0 -10 -1 -47 -4 57
0000d0 ef f8 d5 fc 11 fe b4 dd 0a fb ec fb 37 25 54 f9
       -17 -8 -43 -4 17 -2 -76 -35 10 -5 -20 -5 55 37 84 -7
0000e0 f6 08 22 0f 0b 07 fe 04 0a 14 00 18 fb 15 df f4
       -10 8 34 15 11 7 -2 4 10 20 0 24 -5 21 -33 -12
0000f0 20 fe fb f7 e7 f2 f3 00 fe f0 13 fe 35 f5 30 0a
       32 -2 -5 -9 -25 -14 -13 0 -2 -16 19 -2 53 -11 48 10
