system/system/saiv/textrecognition/stride/mSTR_Latin_LSTM.tflite (tflite, 564160 bytes, 26 tensors)

dense/bias f4 [352]
00000000: f3f2 dbbe f4c5 91be 5745 b4be a2d0 c3be
00000010: 7173 82be 9571 b3be 0839 f8be c875 c0be
00000020: 01e4 dfbe b99a cfbe 33f0 edbd e3c2 8dbe
00000030: 5dea abbe d850 c7be 9f16 7abe d1f9 a6be
00000040: fca5 37be 773b fbbe d87f 4cbe 49cd 0fbf
00000050: ff26 abbe 6c85 73be faa5 90be 3f6e 93be
00000060: 8664 82be c3b0 ccbe 7704 c0be f435 3abe
00000070: 7945 7bbe 0403 cbbd 1612 b6be a8c7 dbbe
00000080: a084 d9be 74b1 ddbe 18fa c2be ef9b e1be
00000090: d229 69be 9f1a cdbe dcee 9cbe 0f8a 99be
000000a0: 9f3b bbbd e80b 8fbe 7e9a d9be 343a 91be
000000b0: fa48 97be 9040 41bf 9d1d adbe efec c2be
000000c0: a551 98be e54f 7ebe 8323 a2be e625 d1be
000000d0: bc32 c6be 5d7e 4fbe 692a 80be f8a6 85be
000000e0: dc31 05bf 6525 b3be ca17 a0be 26f8 d9be
000000f0: 9a1a fbbe d5d7 f8be 5132 4abe 8a76 d9be
00000100: 3e4f a4be eb98 76be 42c1 3ebd 285c 9ebe
00000110: a99a 34be b2fd adbe 7318 e5be 0ff4 10bf
00000120: 2bef 05bf 1418 dbbd a98c 80be e880 c3be
00000130: bb74 00bf a1cc abbe 4bc8 aa3d e523 cabd
00000140: 9f8b adbe 99aa 5d3d 9561 ffbe 296b c5be
00000150: 16ed 55bd b627 72be 64c7 f1be 6204 87be
00000160: d538 c9be ce8b d3bd ab9f 85be 6171 02be
00000170: 3824 9fbe 64bf d2be a836 7ebe 70c1 4abe
00000180: 5074 71be a9ed 56bc 03bf 9c3e d98e 08be
00000190: 4fcd bbbe 01e8 b03d 0a2c 7dbe 12bb 58be
000001a0: 0afa f03d 02fa 4abe 9ce5 86be 1f57 2abe
000001b0: 0877 b8bd 3882 28be 86b3 33be ed4d cb3d
000001c0: 410a 6cbe 2e11 a3be 0ce7 1abe b541 cebd
000001d0: 9253 c8be 8657 5cbd cde8 6a3d bd52 d7bd
000001e0: 9abb 78be 971a 8c3c ac8a cdbd 433a 63be
000001f0: 57d4 09bd b2e6 8fbe 2a40 a23d 395d 783d
00000200: cd82 39be 7c16 973d 5c00 b2be 0c0e ecbd
00000210: 4a8b 57be 6fbb 633c ade2 febd 2ca2 24be
00000220: bd39 8cbe 1da9 c1bd 81f8 ebbe 7ee5 5cbe
00000230: ff4e 8cbd 15d6 74be 0abf 3bbe bdc3 0ebe
00000240: 65d7 6fbe e115 8abe 142b dfbd e5bb bebe
00000250: d83a 16bf 7c44 d5bd 280a a6be 004a 04be
00000260: 82c3 58be 6764 92be 44e5 34be 3b42 82be
00000270: 8244 67be 6a9c 94be 8773 35be 5f78 8fbe
00000280: b03f acbe a93c a7be a1f8 043d 2494 bdbd
00000290: a9ac 48be dd2f 6ebe 2b2a 99bd b7ed 4ebe
000002a0: efb9 a2be c456 a1be 27d2 8dbe d353 1ebe
000002b0: 0486 1dbe e3b7 02be e9d1 1fbe 36b6 25be
000002c0: 37de 8cbe 6c3f 1bbe fc56 b9bd 7032 9dbd
000002d0: 36f8 92bc 4bc1 0ebe 6a9e 87be c8ba e5be
000002e0: 3ddb a0be b576 71be eef1 1abe d609 eabe
000002f0: 3f55 fdbd 45e6 6bbb fa24 48be e1ef 67be
00000300: 1c90 c4be 9e8c 90be d912 b1be 52c9 ccbe
00000310: ef7e d7bd 970d 0c3d 3294 41be 60ec 7bbe
00000320: 61bd 5cbe 20bd 14be 92aa 0ebd 16d5 ce3b
00000330: 9f0d 89bd 3209 99bd e402 f6bb f855 2c3c
00000340: a44b 0ebe 4073 3cbe 8da9 73be e876 cebd
00000350: 9960 85be 3421 9bbe fc27 f8bd d05d 90be
00000360: dccc 94be e367 98be beab 9fbe af54 8fbe
00000370: 8924 09be f403 b8bc bd70 71be aa98 7abe
00000380: 46f2 7abd 126a b5bd a2db b7be dd06 68be
00000390: 6a5e 90be e1fe 84bd 7b76 57bd 9d2e 34bc
000003a0: e896 b5be 5ab6 b4be cbda 1dbf 8ab2 afbe
000003b0: 48ee d3be 0588 15bf bc80 3fc0 9052 94be
000003c0: 0324 babd e762 78bf ef7f 9dbf 1d99 8abf
000003d0: 8382 4fc0 a452 91bf bcc7 6fbf 09db a1be
000003e0: c521 4f3d 6658 abbe 872f 833e f654 bf3d
000003f0: 4c8c edbd dd4b bc3d d36c b3bf 14a7 f63d
-0.42958793 -0.2847134 -0.35209152 -0.38245112 -0.254787 -0.35047594 -0.4848101 -0.3758986
-0.4372864 -0.40547732 -0.1161808 -0.2768775 -0.33577242 -0.38928866 -0.24422692 -0.3261247
-0.17934412 -0.49068806 -0.19970644 -0.56172615 -0.3342819 -0.23781365 -0.2825163 -0.2879505
-0.25467318 -0.39978608 -0.37503406 -0.18184644 -0.2453822 -0.099126846 -0.35560673 -0.42925763
-0.42483997 -0.43299448 -0.3808143 -0.4406428 -0.2276986 -0.40059373 -0.30650985 -0.29988143
-0.09142231 -0.2793877 -0.4250068 -0.28364718 -0.29547864 -0.7548914 -0.33811656 -0.3807139
-0.2974979 -0.24835165 -0.31667718 -0.40849227 -0.38710582 -0.20263048 -0.25032356 -0.2610395
-0.52029204 -0.34989467 -0.3126815 -0.42572135 -0.49043733 -0.48602167 -0.19745757 -0.4247325
-0.32091707 -0.24081771 -0.046571024 -0.30929685 -0.17637123 -0.33982617 -0.44745216 -0.56622404
-0.52318066 -0.10697952 -0.25107315 -0.38184285 -0.50178117 -0.33554557 0.08338984 -0.098701276
-0.33895585 0.054117773 -0.49879137 -0.3855832 -0.052228056 -0.23647961 -0.47222435 -0.2637053
-0.39301172 -0.103294 -0.2609838 -0.12738563 -0.3108232 -0.41161644 -0.24825537 -0.19800353
-0.23579526 -0.013118186 0.3061448 -0.13335742 -0.36680076 0.08638001 -0.24723831 -0.21165112
0.11766441 -0.19821933 -0.26347053 -0.16634797 -0.090070784 -0.16455925 -0.17548952 0.099269725
-0.23050787 -0.31849045 -0.151272 -0.10071126 -0.3912626 -0.053794406 0.057350922 -0.10513828
-0.24290314 0.017102523 -0.10036215 -0.22190194 -0.03364977 -0.28105694 0.079223946 0.06063578
-0.18116303 0.073773354 -0.347659 -0.11526117 -0.21049228 0.013899668 -0.12445579 -0.16077489
-0.273878 -0.09456084 -0.4608803 -0.2157192 -0.06851005 -0.23909791 -0.18334594 -0.13941856
-0.2342201 -0.26969817 -0.108968884 -0.37252727 -0.5868354 -0.10413453 -0.32429624 -0.12918854
-0.2116833 -0.28592226 -0.17665583 -0.25441155 -0.22584727 -0.29025584 -0.17719851 -0.28021523
-0.3364234 -0.32663468 0.032463674 -0.09256771 -0.19597115 -0.23260446 -0.07478746 -0.20207869
-0.3178248 -0.3151151 -0.27699396 -0.15461664 -0.15383154 -0.1276546 -0.15607418 -0.16182789
-0.27513286 -0.15160912 -0.09049794 -0.07675636 -0.017940622 -0.13940923 -0.26488048 -0.44869065
-0.31417266 -0.2358044 -0.15131351 -0.4571063 -0.12369775 -0.0035995406 -0.19545355 -0.226501
-0.38391197 -0.28232282 -0.34584692 -0.39997345 -0.105222575 0.034192648 -0.18904188 -0.24601889
-0.21556617 -0.1452527 -0.034830637 0.006312023 -0.06692051 -0.07472457 -0.007507669 0.010518543
-0.13896042 -0.1840334 -0.23795147 -0.10081273 -0.2605026 -0.3029877 -0.121170014 -0.28196573
-0.29062545 -0.2976676 -0.31185716 -0.27994296 -0.13392843 -0.022462822 -0.23578162 -0.24472299
-0.061266206 -0.08858122 -0.35909754 -0.22658868 -0.28197032 -0.06493927 -0.052603226 -0.010997442
-0.35466695 -0.35295373 -0.61661977 -0.34315902 -0.41392732 -0.58410674 -2.9922323 -0.2896924
-0.090889 -0.97025913 -1.2304667 -1.0827976 -3.2423408 -1.1353345 -0.93664145 -0.31612423
0.050569315 -0.3346588 0.25622198 0.09342377 -0.11599025 0.09194157 -1.4017586 0.120435864

recog/birnn/bidirectional_rnn/bw/rnn3/cell_bias f4 [164]
00000000: d2a9 e33c db97 debd 8f78 36be b533 26bd
00000010: 52eb 053d 9388 1cbd b2ac 9fbe 6b2a f6bc
00000020: 2bb9 c93d 2e99 073d ecd3 18bd 335f 9bbe
00000030: 8119 11bd 8124 193d 97ee 2d3d 12d4 33bc
00000040: cff6 4f3e 8a0d 2b3e cfd2 513e a1c3 e8bd
00000050: 9185 1f3d b7e4 4f3d bc1f 0bbe a61c cf3c
00000060: dd2a 15be 391f 0d3e ed4a 813d 776d 4cbb
00000070: b9ec 31be f449 cc3d 450b 17bb 0ad6 88bc
00000080: 9661 c8bd d108 e73d f8f4 f7bd f787 ac3d
00000090: 03e5 29be b2fb c03b 5d36 fabd b26f 28be
000000a0: 238f 27be 1c49 bb3d b605 4ebc 3605 bdbd
000000b0: 13a5 9a3e d41d 083e 9d83 febd 5d28 13be
000000c0: 9bf9 233e 516a d6bc b83e 2f3e 3e53 86be
000000d0: 041e 483d 89fd 553d ff6f 343e 93f8 803d
000000e0: 50a2 7bbe 9a29 8d3d 7f12 093d 6145 39be
000000f0: 19ae 1f3d 37db bf3c 8f42 e63d 2b11 573d
00000100: 5ac8 8f3c 83ef 96bd 83f8 03be f66d 58bd
00000110: f0e7 b13e 9697 0a3d 54fc ef3c db23 cf3a
00000120: 4d39 96bd 3d44 88be 5414 3e3e ec6e cc3d
00000130: c320 49be 4b34 5dbd a575 0d3e b905 d13b
00000140: 773e 933d 0720 1abd 37e3 033c 0e4a d13d
00000150: ecb6 e2bd b1b8 e1bd 7e2e 9fbd 5748 c33c
00000160: d73b dd3d a1d2 003e e565 903d 6863 a8bd
00000170: 7f4a 3c3d a87e 343e 6cb8 243e 44c2 4a3d
00000180: 4159 fabd 7303 953d 89bb 72bd 9cae 0cbe
00000190: c662 1bbe ea75 8bbd 226d 303d 9956 ffba
000001a0: a68b 0c3d 9982 673d 1044 87bc d135 ba3d
000001b0: d34f 7bbd 461d 37bd 7bb3 fdbc 863a 273b
000001c0: c5da 2b3e 660d 60bb e52d eebd 7df6 763d
000001d0: b8e3 adbc 70bb 113e 87d8 513d 8190 e33d
000001e0: 28c7 17be b8bc b6bb 04ae 6fbd dc8d 673e
000001f0: f7a4 98bd e432 97be 5513 f43d 07b7 2dbe
00000200: 647d b6bd 5522 a4bc e4b0 923d cbc8 eabd
00000210: d654 813d 459e c23d c660 0fbe 779c 2ebe
00000220: d3f4 9fbd 19d8 8a3e 281c 163e be83 ecbc
00000230: 06ad 183d f911 9b3e d645 be3d ec2c 10be
00000240: 9b1d f2bd e2e3 2dbd dcf2 0fbd 25c3 29be
00000250: 409d ff3d b41a c9bd cab8 c6bd 6bc3 f2bd
00000260: 7558 bd3c 3141 1c3b 0507 913d d600 23bc
00000270: 12cf 303e 6964 cb3c ff19 86be 465a c8bd
00000280: 5070 e2bc d5e3 f8bc e12c 28be 65ee 9f3d
0.027790938 -0.10868808 -0.17819427 -0.040576655 0.032695122 -0.038216185 -0.31186444 -0.030049523
0.09849771 0.033105068 -0.03731148 -0.3034607 -0.035424713 0.03738833 0.042463865 -0.0109758545
0.20308994 0.16704383 0.20490573 -0.11365438 0.03894574 0.05075523 -0.13586324 0.025282215
-0.14567132 0.13781442 0.06313119 -0.0031193176 -0.17375459 0.09975043 -0.0023047489 -0.016703624
-0.09784238 0.112809785 -0.12107271 0.08424371 -0.16591267 0.0058893794 -0.122174 -0.16448858
-0.16363196 0.09144804 -0.012574604 -0.092295095 0.30204067 0.13292629 -0.12427447 -0.14370866
0.16013186 -0.026173742 0.17113769 -0.26235384 0.04885675 0.052243743 0.17620848 0.06297412
-0.24573636 0.068927005 0.033464905 -0.18092872 0.03898439 0.02341996 0.11243164 0.052506607
0.01755159 -0.07369902 -0.12887768 -0.052839242 0.34747267 0.03383597 0.029295124 0.0015803532
-0.07335148 -0.26614562 0.18562442 0.09982094 -0.19641404 -0.05400495 0.13814409 0.006378856
0.071896486 -0.0376282 0.008049778 0.10219203 -0.11070046 -0.11021555 -0.077725396 0.023838205
0.10802429 0.12580349 0.07050685 -0.08222085 0.045969483 0.1762644 0.16085976 0.049501672
-0.12224055 0.072760485 -0.05926088 -0.13738483 -0.15174398 -0.068096 0.043072827 -0.0019480764
0.034312867 0.056521032 -0.016511947 0.09092296 -0.061355423 -0.04470565 -0.030969372 0.002551706
0.16782673 -0.0034187674 -0.116298474 0.060293663 -0.021226749 0.14231658 0.051231887 0.11111546
-0.14822066 -0.0055766962 -0.058515564 0.22612709 -0.074533395 -0.29531014 0.1191775 -0.1696435
-0.08910635 -0.020035902 0.071626455 -0.114640795 0.06315009 0.09502844 -0.1400176 -0.17051874
-0.078103684 0.27117994 0.14659178 -0.028871413 0.037274383 0.3028715 0.09290664 -0.14079636
-0.11822053 -0.042453654 -0.035143718 -0.16578348 0.12481165 -0.09819546 -0.097032145 -0.11853679
0.023113469 0.0023842568 0.07081417 -0.00994893 0.17266491 0.024828153 -0.26191708 -0.09782843
-0.027641445 -0.030382076 -0.1642337 0.07809142

recog/birnn/bidirectional_rnn/bw/rnn3/cell_to_cell_w i1 [164, 164] scale=0.016799595 zero_point=0
00000000: f901 ff08 f70f 0103 0804 fafe 0400 04fd
00000010: fc00 fefe fa09 fd02 fdfc f7fc 01fe f6fa
00000020: 05f3 0701 0e06 fc0c fa02 fe01 fd05 0c00
00000030: 01fa feff fafc fdf9 f7fe fe01 fcfb ff05
00000040: 06f2 f7fc 04fe 0afd 08ff fc00 fc08 00ff
00000050: fb01 fd00 fffc fe04 04fd f704 f513 01f4
00000060: f50a 04f5 f20c 0101 fd0b 0300 f606 07ff
00000070: 0afd 0004 fffb fef4 0401 1afd 03f9 06ff
00000080: 0cf6 fe01 0009 0d03 0603 03e9 f800 03fe
00000090: f8f9 00f9 0101 0805 0006 fefd 0700 f903
000000a0: 07f8 0101 fefa 01fd fe04 0306 0f03 eef8
000000b0: fdfa fd08 fcfb eb00 f8e6 fb09 0704 fafe
000000c0: 03fd f2fe eff3 09fe 0d20 fdfd 0d00 00fc
000000d0: 03f6 fef9 feff ff03 f802 00fb e1f8 01fb
000000e0: f709 0104 04f2 0209 fff3 0f01 fefe f409
000000f0: 0104 04fe fc07 0103 ef01 f200 0203 0aef
-0.11759716 0.016799595 -0.016799595 0.13439676 -0.15119636 0.25199392 0.016799595 0.050398786
0.13439676 0.06719838 -0.10079757 -0.03359919 0.06719838 0.0 0.06719838 -0.050398786
-0.06719838 0.0 -0.03359919 -0.03359919 -0.10079757 0.15119636 -0.050398786 0.03359919
-0.050398786 -0.06719838 -0.15119636 -0.06719838 0.016799595 -0.03359919 -0.16799596 -0.10079757
0.08399798 -0.21839474 0.11759716 0.016799595 0.23519433 0.10079757 -0.06719838 0.20159514
-0.10079757 0.03359919 -0.03359919 0.016799595 -0.050398786 0.08399798 0.20159514 0.0
0.016799595 -0.10079757 -0.03359919 -0.016799595 -0.10079757 -0.06719838 -0.050398786 -0.11759716
-0.15119636 -0.03359919 -0.03359919 0.016799595 -0.06719838 -0.08399798 -0.016799595 0.08399798
0.10079757 -0.23519433 -0.15119636 -0.06719838 0.06719838 -0.03359919 0.16799596 -0.050398786
0.13439676 -0.016799595 -0.06719838 0.0 -0.06719838 0.13439676 0.0 -0.016799595
-0.08399798 0.016799595 -0.050398786 0.0 -0.016799595 -0.06719838 -0.03359919 0.06719838
0.06719838 -0.050398786 -0.15119636 0.06719838 -0.18479554 0.31919232 0.016799595 -0.20159514
-0.18479554 0.16799596 0.06719838 -0.18479554 -0.23519433 0.20159514 0.016799595 0.016799595
-0.050398786 0.18479554 0.050398786 0.0 -0.16799596 0.10079757 0.11759716 -0.016799595
0.16799596 -0.050398786 0.0 0.06719838 -0.016799595 -0.08399798 -0.03359919 -0.20159514
0.06719838 0.016799595 0.43678948 -0.050398786 0.050398786 -0.11759716 0.10079757 -0.016799595
0.20159514 -0.16799596 -0.03359919 0.016799595 0.0 0.15119636 0.21839474 0.050398786
0.10079757 0.050398786 0.050398786 -0.3863907 -0.13439676 0.0 0.050398786 -0.03359919
-0.13439676 -0.11759716 0.0 -0.11759716 0.016799595 0.016799595 0.13439676 0.08399798
0.0 0.10079757 -0.03359919 -0.050398786 0.11759716 0.0 -0.11759716 0.050398786
0.11759716 -0.13439676 0.016799595 0.016799595 -0.03359919 -0.10079757 0.016799595 -0.050398786
-0.03359919 0.06719838 0.050398786 0.10079757 0.25199392 0.050398786 -0.30239272 -0.13439676
-0.050398786 -0.10079757 -0.050398786 0.13439676 -0.06719838 -0.08399798 -0.3527915 0.0
-0.13439676 -0.43678948 -0.08399798 0.15119636 0.11759716 0.06719838 -0.10079757 -0.03359919
0.050398786 -0.050398786 -0.23519433 -0.03359919 -0.28559312 -0.21839474 0.15119636 -0.03359919
0.21839474 0.53758705 -0.050398786 -0.050398786 0.21839474 0.0 0.0 -0.06719838
0.050398786 -0.16799596 -0.03359919 -0.11759716 -0.03359919 -0.016799595 -0.016799595 0.050398786
-0.13439676 0.03359919 0.0 -0.08399798 -0.5207875 -0.13439676 0.016799595 -0.08399798
-0.15119636 0.15119636 0.016799595 0.06719838 0.06719838 -0.23519433 0.03359919 0.15119636
-0.016799595 -0.21839474 0.25199392 0.016799595 -0.03359919 -0.03359919 -0.20159514 0.15119636
0.016799595 0.06719838 0.06719838 -0.03359919 -0.06719838 0.11759716 0.016799595 0.050398786
-0.28559312 0.016799595 -0.23519433 0.0 0.03359919 0.050398786 0.16799596 -0.28559312

recog/birnn/bidirectional_rnn/bw/rnn3/cell_to_forget_w i1 [164, 164] scale=0.01626954 zero_point=0
00000000: ffe1 d2fc 0dcb fb0a 2007 14cd f5f7 f6f5
00000010: 0c00 f123 fa22 09ef fdfa de17 0c16 1201
00000020: ee01 0cd3 010c 1210 0c07 0113 34f3 0508
00000030: 0201 f2ec f11f 03f8 fee7 1606 f006 2047
00000040: fa3a edd5 061a e914 2406 faf0 f323 fce3
00000050: e4f8 001d ee31 dd27 f21b 0812 dc0c 1f10
00000060: 1ae5 02d7 df17 f208 3e15 040d fc17 f5f3
00000070: 21c2 0307 08ea fbfe fffe ef20 0e11 210d
00000080: 0bf4 0503 0b0b ecee 26f9 0cf5 26f6 0100
00000090: e0fc f106 f410 fc0d e804 e808 03e9 01e9
000000a0: e8fa 3d18 0f09 e6e8 f0e1 cd08 0c14 18f9
000000b0: f207 fcf2 e705 fef4 ecec f722 fdf8 ee0e
000000c0: 0de4 19fd 1004 13e1 f8e7 ebee fee0 0604
000000d0: 1e10 0700 fcde e706 fc0c e4fe 192d f5f5
000000e0: edfa 0a3c f82d 06fd eb0f c4d4 21ed f215
000000f0: 0118 0718 fe03 f11a ed02 faf4 e70c 09fa
-0.01626954 -0.5043557 -0.74839884 -0.06507816 0.21150403 -0.8622856 -0.081347704 0.16269541
0.5206253 0.11388678 0.32539082 -0.82974654 -0.17896494 -0.14642586 -0.16269541 -0.17896494
0.19523448 0.0 -0.24404311 0.5694339 -0.09761724 0.55316436 0.14642586 -0.27658218
-0.04880862 -0.09761724 -0.55316436 0.37419942 0.19523448 0.3579299 0.29285172 0.01626954
-0.29285172 0.01626954 0.19523448 -0.73212934 0.01626954 0.19523448 0.29285172 0.26031265
0.19523448 0.11388678 0.01626954 0.30912128 0.8460161 -0.21150403 0.081347704 0.13015632
0.03253908 0.01626954 -0.22777356 -0.32539082 -0.24404311 0.5043557 0.04880862 -0.13015632
-0.03253908 -0.40673852 0.3579299 0.09761724 -0.26031265 0.09761724 0.5206253 1.1551374
-0.09761724 0.9436333 -0.30912128 -0.69959027 0.09761724 0.42300805 -0.37419942 0.32539082
0.58570343 0.09761724 -0.09761724 -0.26031265 -0.21150403 0.5694339 -0.06507816 -0.47181666
-0.45554712 -0.13015632 0.0 0.47181666 -0.29285172 0.7972075 -0.5694339 0.63451207
-0.22777356 0.4392776 0.13015632 0.29285172 -0.58570343 0.19523448 0.5043557 0.26031265
0.42300805 -0.4392776 0.03253908 -0.66705114 -0.53689486 0.37419942 -0.22777356 0.13015632
1.0087115 0.34166035 0.06507816 0.21150403 -0.06507816 0.37419942 -0.17896494 -0.21150403
0.53689486 -1.0087115 0.04880862 0.11388678 0.13015632 -0.3579299 -0.081347704 -0.03253908
-0.01626954 -0.03253908 -0.27658218 0.5206253 0.22777356 0.27658218 0.53689486 0.21150403
0.17896494 -0.19523448 0.081347704 0.04880862 0.17896494 0.17896494 -0.32539082 -0.29285172
0.61824256 -0.11388678 0.19523448 -0.17896494 0.61824256 -0.16269541 0.01626954 0.0
-0.5206253 -0.06507816 -0.24404311 0.09761724 -0.19523448 0.26031265 -0.06507816 0.21150403
-0.39046896 0.06507816 -0.39046896 0.13015632 0.04880862 -0.37419942 0.01626954 -0.37419942
-0.39046896 -0.09761724 0.99244195 0.39046896 0.24404311 0.14642586 -0.42300805 -0.39046896
-0.26031265 -0.5043557 -0.82974654 0.13015632 0.19523448 0.32539082 0.39046896 -0.11388678
-0.22777356 0.11388678 -0.06507816 -0.22777356 -0.40673852 0.081347704 -0.03253908 -0.19523448
-0.32539082 -0.32539082 -0.14642586 0.55316436 -0.04880862 -0.13015632 -0.29285172 0.22777356
0.21150403 -0.45554712 0.40673852 -0.04880862 0.26031265 0.06507816 0.30912128 -0.5043557
-0.13015632 -0.40673852 -0.34166035 -0.29285172 -0.03253908 -0.5206253 0.09761724 0.06507816
0.48808622 0.26031265 0.11388678 0.0 -0.06507816 -0.55316436 -0.40673852 0.09761724
-0.06507816 0.19523448 -0.45554712 -0.03253908 0.40673852 0.73212934 -0.17896494 -0.17896494
-0.30912128 -0.09761724 0.16269541 0.97617245 -0.13015632 0.73212934 0.09761724 -0.04880862
-0.34166035 0.24404311 -0.97617245 -0.7158598 0.53689486 -0.30912128 -0.22777356 0.34166035
0.01626954 0.39046896 0.11388678 0.39046896 -0.03253908 0.04880862 -0.24404311 0.42300805
-0.30912128 0.03253908 -0.09761724 -0.19523448 -0.40673852 0.19523448 0.14642586 -0.09761724

recog/birnn/bidirectional_rnn/bw/rnn3/cell_to_input_w i1 [164, 164] scale=0.013734506 zero_point=0
00000000: f30c 11fe 0b54 eff1 f0e9 e6e8 0f09 0205
00000010: e90c ee05 0e05 09de 17f9 f516 03f1 faec
00000020: 2bfb f90d 15e3 f001 f4ef fb0b e209 ee04
00000030: 03f2 fe03 f4fd f70a f3ff 0b01 0eef 11fb
00000040: 0506 df05 fcfe 2319 0d0c 010a f527 2401
00000050: ffff 0fe1 f9e2 1bec 17ef f8fa e74a 1ce6
00000060: f213 1111 0b0c 150c e816 ff0f 1bfc 1c1d
00000070: 03f8 16ed 1309 0e00 fb03 19e9 e001 db1d
00000080: 200a eefd 11f2 2b00 eee5 ef19 f202 1302
00000090: ff30 19ec dcee 1f04 e012 16fc 001a ff13
000000a0: e5fe cf11 030a e4f0 0d2b 09f6 e500 e605
000000b0: fe21 fc02 e80d c60c 0e05 faec fbfb 07f0
000000c0: 00f3 0917 0aef 0b15 221b e70d 03e5 f8f6
000000d0: f112 fdfa 0303 f909 0cfe 00ea 0e0d f3f6
000000e0: 09f0 0204 ef1c 070c e806 0508 e8fb 0ffa
000000f0: e405 ff28 0aff fa0c f5f2 cbca ef0a 18eb
-0.17854859 0.16481408 0.23348661 -0.027469013 0.15107957 1.1536986 -0.23348661 -0.2060176
-0.2197521 -0.31589365 -0.35709718 -0.32962817 0.2060176 0.123610556 0.027469013 0.06867253
-0.31589365 0.16481408 -0.24722111 0.06867253 0.1922831 0.06867253 0.123610556 -0.46697322
0.31589365 -0.09614155 -0.15107957 0.30215913 0.04120352 -0.2060176 -0.08240704 -0.27469012
0.5905838 -0.06867253 -0.09614155 0.17854859 0.28842464 -0.39830068 -0.2197521 0.013734506
-0.16481408 -0.23348661 -0.06867253 0.15107957 -0.4120352 0.123610556 -0.24722111 0.054938026
0.04120352 -0.1922831 -0.027469013 0.04120352 -0.16481408 -0.04120352 -0.123610556 0.13734506
-0.17854859 -0.013734506 0.15107957 0.013734506 0.1922831 -0.23348661 0.23348661 -0.06867253
0.06867253 0.08240704 -0.45323873 0.06867253 -0.054938026 -0.027469013 0.48070773 0.34336266
0.17854859 0.16481408 0.013734506 0.13734506 -0.15107957 0.5356457 0.49444222 0.013734506
-0.013734506 -0.013734506 0.2060176 -0.4257697 -0.09614155 -0.4120352 0.37083167 -0.27469012
0.31589365 -0.23348661 -0.10987605 -0.08240704 -0.34336266 1.0163535 0.3845662 -0.35709718
-0.1922831 0.26095563 0.23348661 0.23348661 0.15107957 0.16481408 0.28842464 0.16481408
-0.32962817 0.30215913 -0.013734506 0.2060176 0.37083167 -0.054938026 0.3845662 0.39830068
0.04120352 -0.10987605 0.30215913 -0.26095563 0.26095563 0.123610556 0.1922831 0.0
-0.06867253 0.04120352 0.34336266 -0.31589365 -0.4395042 0.013734506 -0.50817674 0.39830068
0.4395042 0.13734506 -0.24722111 -0.04120352 0.23348661 -0.1922831 0.5905838 0.0
-0.24722111 -0.37083167 -0.23348661 0.34336266 -0.1922831 0.027469013 0.26095563 0.027469013
-0.013734506 0.65925634 0.34336266 -0.27469012 -0.49444222 -0.24722111 0.4257697 0.054938026
-0.4395042 0.24722111 0.30215913 -0.054938026 0.0 0.35709718 -0.013734506 0.26095563
-0.37083167 -0.027469013 -0.6729908 0.23348661 0.04120352 0.13734506 -0.3845662 -0.2197521
0.17854859 0.5905838 0.123610556 -0.13734506 -0.37083167 0.0 -0.35709718 0.06867253
-0.027469013 0.45323873 -0.054938026 0.027469013 -0.32962817 0.17854859 -0.79660136 0.16481408
0.1922831 0.06867253 -0.08240704 -0.27469012 -0.06867253 -0.06867253 0.09614155 -0.2197521
0.0 -0.17854859 0.123610556 0.31589365 0.13734506 -0.23348661 0.15107957 0.28842464
0.46697322 0.37083167 -0.34336266 0.17854859 0.04120352 -0.37083167 -0.10987605 -0.13734506
-0.2060176 0.24722111 -0.04120352 -0.08240704 0.04120352 0.04120352 -0.09614155 0.123610556
0.16481408 -0.027469013 0.0 -0.30215913 0.1922831 0.17854859 -0.17854859 -0.13734506
0.123610556 -0.2197521 0.027469013 0.054938026 -0.23348661 0.3845662 0.09614155 0.16481408
-0.32962817 0.08240704 0.06867253 0.10987605 -0.32962817 -0.06867253 0.2060176 -0.08240704
-0.3845662 0.06867253 -0.013734506 0.54938024 0.13734506 -0.013734506 -0.08240704 0.16481408
-0.15107957 -0.1922831 -0.7279288 -0.74166334 -0.23348661 0.13734506 0.32962817 -0.28842464

recog/birnn/bidirectional_rnn/bw/rnn3/cell_to_output_w i1 [164, 164] scale=0.023816397 zero_point=0
00000000: f1f9 fb09 fd00 0bfc 2009 0dfc 04ea 0bf9
00000010: 0c02 020e 0b04 05f3 0b14 03ff e2f7 0113
00000020: 0bf1 0205 ebfc fced f002 07e9 fbfa f3fe
00000030: 0708 06ff f102 f2f3 f4f1 fd12 fc0b fd03
00000040: 110b fafe f5e4 2406 02f2 fcf6 f9f4 e9f6
00000050: 03ff 19f7 0a03 05fd f7df 000a ef1a 06e6
00000060: f0f3 09e9 eff3 eeff f406 eaff ecfc 06ff
00000070: f202 e61f 0afe 0709 1211 fff6 05ea fd0c
00000080: 1b08 07f5 1bfd 04ff 1200 e5fb fb02 f0f7
00000090: 08f2 0ee8 f5ed 040a 0dff 04ea 07f7 14ed
000000a0: 02f1 05f8 0ae6 f505 ea14 fcef 0e05 090b
000000b0: 03fa 1922 fbe4 06ff f50b fbf4 04f4 fe17
000000c0: fdf8 fc1a e6f1 f7f0 e409 04f9 08e7 04fd
000000d0: ec00 feee 00e6 0013 f009 e7ed 1108 0301
000000e0: 10fe df05 0904 f810 ffee e5fd 0a21 01f2
000000f0: f50b f9fe 030f ff0a 20ed 02ed f921 f4ea
-0.35724595 -0.16671479 -0.11908199 0.21434757 -0.07144919 0.0 0.26198038 -0.09526559
0.7621247 0.21434757 0.30961317 -0.09526559 0.09526559 -0.52396077 0.26198038 -0.16671479
0.28579676 0.047632795 0.047632795 0.33342957 0.26198038 0.09526559 0.11908199 -0.30961317
0.26198038 0.47632796 0.07144919 -0.023816397 -0.7144919 -0.21434757 0.023816397 0.45251155
0.26198038 -0.35724595 0.047632795 0.11908199 -0.50014436 -0.09526559 -0.09526559 -0.45251155
-0.38106236 0.047632795 0.16671479 -0.5477771 -0.11908199 -0.14289838 -0.30961317 -0.047632795
0.16671479 0.19053118 0.14289838 -0.023816397 -0.35724595 0.047632795 -0.33342957 -0.30961317
-0.28579676 -0.35724595 -0.07144919 0.42869514 -0.09526559 0.26198038 -0.07144919 0.07144919
0.40487877 0.26198038 -0.14289838 -0.047632795 -0.26198038 -0.66685915 0.8573903 0.14289838
0.047632795 -0.33342957 -0.09526559 -0.23816398 -0.16671479 -0.28579676 -0.5477771 -0.23816398
0.07144919 -0.023816397 0.5954099 -0.21434757 0.23816398 0.07144919 0.11908199 -0.07144919
-0.21434757 -0.7859411 0.0 0.23816398 -0.40487877 0.61922634 0.14289838 -0.61922634
-0.38106236 -0.30961317 0.21434757 -0.5477771 -0.40487877 -0.30961317 -0.42869514 -0.023816397
-0.28579676 0.14289838 -0.52396077 -0.023816397 -0.47632796 -0.09526559 0.14289838 -0.023816397
-0.33342957 0.047632795 -0.61922634 0.7383083 0.23816398 -0.047632795 0.16671479 0.21434757
0.42869514 0.40487877 -0.023816397 -0.23816398 0.11908199 -0.52396077 -0.07144919 0.28579676
0.64304274 0.19053118 0.16671479 -0.26198038 0.64304274 -0.07144919 0.09526559 -0.023816397
0.42869514 0.0 -0.64304274 -0.11908199 -0.11908199 0.047632795 -0.38106236 -0.21434757
0.19053118 -0.33342957 0.33342957 -0.5715935 -0.26198038 -0.45251155 0.09526559 0.23816398
0.30961317 -0.023816397 0.09526559 -0.52396077 0.16671479 -0.21434757 0.47632796 -0.45251155
0.047632795 -0.35724595 0.11908199 -0.19053118 0.23816398 -0.61922634 -0.26198038 0.11908199
-0.52396077 0.47632796 -0.09526559 -0.40487877 0.33342957 0.11908199 0.21434757 0.26198038
0.07144919 -0.14289838 0.5954099 0.80975753 -0.11908199 -0.66685915 0.14289838 -0.023816397
-0.26198038 0.26198038 -0.11908199 -0.28579676 0.09526559 -0.28579676 -0.047632795 0.5477771
-0.07144919 -0.19053118 -0.09526559 0.61922634 -0.61922634 -0.35724595 -0.21434757 -0.38106236
-0.66685915 0.21434757 0.09526559 -0.16671479 0.19053118 -0.5954099 0.09526559 -0.07144919
-0.47632796 0.0 -0.047632795 -0.42869514 0.0 -0.61922634 0.0 0.45251155
-0.38106236 0.21434757 -0.5954099 -0.45251155 0.40487877 0.19053118 0.07144919 0.023816397
0.38106236 -0.047632795 -0.7859411 0.11908199 0.21434757 0.09526559 -0.19053118 0.38106236
-0.023816397 -0.42869514 -0.64304274 -0.07144919 0.23816398 0.7859411 0.023816397 -0.33342957
-0.26198038 0.26198038 -0.16671479 -0.047632795 0.07144919 0.35724595 -0.023816397 0.23816398
0.7621247 -0.45251155 0.047632795 -0.45251155 -0.16671479 0.7859411 -0.28579676 -0.52396077

recog/birnn/bidirectional_rnn/bw/rnn3/forget_bias f4 [164]
00000000: 1c9c 553f 2c08 5b3f 7f27 f13f f425 913f
00000010: 4313 603f f39d 723f 61e0 2f3f 12c6 863f
00000020: e218 513f 9d5f 433f 4c37 723f 3e19 3a3f
00000030: 86ee 723f 0a98 803f 7ff0 613f c696 803f
00000040: 7594 633f 79df d83f b44f 953f 200b 3c3f
00000050: 5628 713f 7efb 6e3f 828b 5c3f 2b91 803f
00000060: 1789 7b3f 33d4 5e3f 012e 7a3f ada3 943f
00000070: ec9c 4a3f ba8d 7a3f 83dd 943f a5ab 603f
00000080: fc97 803f 5060 863f 16fc 6e3f 35ce 5c3f
00000090: fef4 8d3f 45d0 873f 12fe 933f 6d59 8e3f
000000a0: 468d 853f 46b0 633f 8024 4d3f 62d7 683f
000000b0: ea26 4d3f c239 823f 4e13 753f 761e a13f
000000c0: 0b79 833f d351 473f f760 763f c0d6 3b3f
000000d0: 6d1b 6e3f 2ee4 733f 0932 443f 2670 633f
000000e0: 7662 d03f ebf8 3f3f 9e32 643f 92f7 923f
000000f0: e093 6b3f 6173 593f 5923 5f3f 564e 693f
00000100: 8a10 4e3f 1f7b a63f 0f6c 5b3f ce48 243f
00000110: b24a 853f 2e11 883f 543f 823f ffde 3b3f
00000120: 707e 5c3f 995b 5c3f 3a15 773f 46c1 7a3f
00000130: 7cca 983f 0bd6 703f 6119 793f a45c 643f
00000140: 22ce 3d3f 78d8 853f c621 6d3f 4696 8e3f
00000150: da22 553f 8172 5e3f 2432 6b3f 1524 683f
00000160: 8248 303f bbba 503f 9896 613f b194 613f
00000170: 2aa4 6a3f 9607 893f 5b97 7d3f aa1b 7e3f
00000180: 0c3b 813f 33be 893f 5102 583f 0fb4 643f
00000190: 3e85 653f 56c3 553f 0d68 8e3f a11e 8b3f
000001a0: f045 6a3f d717 4c3f d22a 503f 476f 623f
000001b0: 25c5 853f e0df 7f3f 8e7f 5e3f ccce 803f
000001c0: 4c02 783f 85ba 673f 70a9 7c3f 0d34 613f
000001d0: 1caa 5b3f 3cef 633f 5de9 583f 3c8f 8d3f
000001e0: b089 533f 37f9 4b3f 480d 823f aad3 863f
000001f0: 5f81 503f a32e 863f 7c19 723f 3c01 8a3f
00000200: 339d 853f db20 683f 8a85 903f 8390 7c3f
00000210: 7435 4e3f fb97 503f 4572 763f 4e0d ee3f
00000220: ba31 763f 5792 8c3f 9f1d 433f 35fc 623f
00000230: 16c8 413f 1c0b cc3f 14fc 543f f8b6 8e3f
00000240: 3679 4b3f 962a 873f 73e4 763f 92ae 7a3f
00000250: 7228 6e3f 3ebb 843f e541 7c3f f6c6 6c3f
00000260: d29b 683f 9e02 4a3f fce5 443f 4a4b 413f
00000270: 7956 613f 731c 213f 3253 8a3f 2303 383f
00000280: 046a 6b3f 3878 673f 4e6e 253f 7a86 833f
0.8344133 0.85559344 1.8840178 1.1339707 0.8752939 0.9477226 0.6870175 1.0529196
0.81678593 0.7631777 0.94615626 0.72694767 0.9489521 1.0046399 0.8825759 1.0046012
0.888984 1.6943198 1.1664948 0.73454475 0.9420217 0.93352497 0.8615037 1.0044302
0.9825606 0.8704254 0.97726446 1.161245 0.79145694 0.9787251 1.16301 0.8776191
1.0046382 1.0498142 0.933534 0.86252147 1.1090391 1.0610434 1.1561911 1.112104
1.0433738 0.88940847 0.8013382 0.9095365 0.80137503 1.0173876 0.9573258 1.2587421
1.0271314 0.7785923 0.96241707 0.7337456 0.930106 0.9527005 0.7663885 0.88843
1.6280048 0.74989194 0.89139736 1.1481802 0.92022514 0.8494168 0.8716331 0.91135156
0.80493987 1.3006324 0.8571176 0.6417359 1.041342 1.0630243 1.0175576 0.7338714
0.8613043 0.86077267 0.96516764 0.9795116 1.1936793 0.94076604 0.9730435 0.8920386
0.7414266 1.0456686 0.9262966 1.113961 0.83256304 0.8689347 0.91873384 0.90680057
0.6886064 0.8153493 0.8812041 0.8811751 0.91656744 1.070544 0.99059075 0.9926096
1.0096145 1.0761169 0.84378535 0.8933725 0.89656436 0.83501184 1.1125504 1.0868722
0.91512966 0.79723877 0.8131534 0.88451046 1.0450789 0.9995098 0.86913383 1.0063109
0.96878505 0.9051898 0.9869604 0.8797005 0.8580644 0.8903692 0.84731084 1.1059337
0.8263197 0.79677147 1.0160303 1.0533345 0.81447405 1.0482982 0.94570136 1.0781627
1.0438598 0.90675133 1.1290753 0.9865801 0.80550313 0.81481904 0.9626811 1.859781
0.96169627 1.0982159 0.76217073 0.8866609 0.7569593 1.594089 0.8319714 1.1149588
0.7948183 1.0559871 0.96442336 0.97922623 0.93030465 1.0369642 0.9853805 0.9249109
0.9086276 0.78910244 0.7691343 0.75505507 0.8802257 0.62934035 1.0806639 0.71879786
0.9195864 0.90417814 0.64621437 1.0275414

recog/birnn/bidirectional_rnn/bw/rnn3/input_bias f4 [164]
00000000: e18d e6bd 2329 50be bba6 ba3d d0a3 1e3d
00000010: 17fa 7fbe 4f11 40be 7d09 17bd e52e b9bd
00000020: d072 cbbc 2c48 2fbe 78a3 34be b9dd 84be
00000030: d9f1 acbe 2b29 25be 5bfc 41be e02c 9bbe
00000040: c7f3 adbd c2f1 58be c105 423d 10cf 81be
00000050: b3b1 8ebd a574 1f3c c21e 96be 7e36 88be
00000060: 43d9 4e39 a8fa 4b3c 8581 2bbe 711b d4be
00000070: 8d57 e1bd 8b2b 123e 34b9 a1be 0ddc 44bd
00000080: e562 37be c25f ecbb 14e3 09bc 6ac1 55be
00000090: fdf1 ef3d c592 c5be e318 783e 6bd2 10be
000000a0: 32d7 51bd c5dd 3abe 0824 68be c8c4 82be
000000b0: 24dd e8bd 29ad aebd edd6 78be a710 1cbd
000000c0: 202d 42be 5291 e8bd 8147 8fbe e670 71be
000000d0: 4aa9 1bbe 7702 31bd ea8d b4be 954f d7bd
000000e0: 60c1 66be b18d 06be 9767 a8bd f6c6 f4bd
000000f0: 78a6 92be 34db bdbd 5082 16bc 14d4 40bd
00000100: f800 0abe 5fb2 afbe f0a8 16be 1866 1abd
00000110: 648f 873e 94de ecbe 1493 eabe a02b e9bd
00000120: fcc8 423b 42f1 cdbe 21fb 363a 03e7 8cbd
00000130: dad6 9fbe 8b14 cdbe 9b1a 34be 6090 62be
00000140: a560 a3be 2a7d 843d 4847 18be cfd2 7abe
00000150: 19bc fabd c91e 49be cd6b e9be 7038 8abe
00000160: 2728 12be a9b1 19bd 1c4b 00be af41 a3be
00000170: e209 7fbd aaf6 a7be fa57 123d 1164 44be
00000180: 0c94 b4be bf04 0dbf fa29 51be 4274 17bd
00000190: 0caf 7bbe dc08 20bd 3e1c e9bd b34e 67bd
000001a0: fdbf 78bd c132 3fbd fb96 b0bd 8f76 95be
000001b0: 7baa c9be e996 dbbd 6430 04bf 5be5 5ebe
000001c0: a284 34be ae57 51be 7b0b 3c3d 6c77 47be
000001d0: a1b3 6dbe 935e d6bd aa68 bebc 8570 443d
000001e0: 6a5a 3fbe b22a 78bd 802f 4abe 3a47 313e
000001f0: 6471 86bd 3b4a 1bbe 941e d7be adb2 0dbe
00000200: 2fdc 403c d982 0abe c274 afbe 2d54 25be
00000210: 4024 0cbe 88ad 3fbe 8887 91be d6d5 26bd
00000220: 3f6a 643c 0128 51be 9c69 87be 2308 01be
00000230: 4c64 873d cda7 163e e73d 81be 0125 98bc
00000240: 1d39 a6be ae19 87be 8ce4 33be b5ae 26be
00000250: 32d5 35be c531 65be 62ca 92be 38a3 54be
00000260: 71ed 72bd f481 afbe e28d 95bd 8ce7 d6bd
00000270: 685e 40be b5e0 8bbe a90e a1be c2be 60bc
00000280: 144b 44be 5a11 90be 9c90 2bbd 3157 28be
-0.1125753 -0.20328192 0.091138326 0.038730443 -0.24997745 -0.18756603 -0.036874283 -0.090421475
-0.02483502 -0.17117375 -0.17640483 -0.2595041 -0.33778265 -0.16128986 -0.18943922 -0.30307674
-0.084937625 -0.21185973 0.04736877 -0.2535329 -0.06967487 0.0097324 -0.2932034 -0.26604074
0.00019726627 0.012449898 -0.16748627 -0.41427186 -0.11003027 0.14274423 -0.3158661 -0.04806142
-0.17908819 -0.0072135637 -0.008415956 -0.20874563 0.117160775 -0.3858854 0.24228244 -0.14142768
-0.051230617 -0.18248661 -0.22669995 -0.25540757 -0.11370304 -0.085291214 -0.24300738 -0.03810182
-0.18962526 -0.11355843 -0.2798424 -0.23578224 -0.15201297 -0.04321524 -0.35264522 -0.10513226
-0.22534704 -0.13139988 -0.08222883 -0.11952011 -0.2864263 -0.09270325 -0.009186342 -0.047077253
-0.13476932 -0.34315774 -0.14712882 -0.03769502 0.26476586 -0.46263564 -0.45815337 -0.11385274
0.0029721847 -0.40223128 0.000698017 -0.068799995 -0.31218606 -0.40054736 -0.17588274 -0.22125387
-0.3190967 0.06469186 -0.14870942 -0.2449448 -0.12242908 -0.1964065 -0.45590058 -0.26996183
-0.1427313 -0.037522946 -0.12528652 -0.3188605 -0.062265284 -0.32805377 0.035728432 -0.19178797
-0.352692 -0.55085367 -0.20426169 -0.036976106 -0.24578494 -0.03907095 -0.1138234 -0.056471538
-0.06072997 -0.046679262 -0.08622547 -0.29192016 -0.3938788 -0.10722143 -0.5163634 -0.2176718
-0.1762872 -0.20443603 0.045909386 -0.1947915 -0.23213054 -0.10467257 -0.023243267 0.04795887
-0.18686834 -0.060587592 -0.19744682 0.17312327 -0.06564596 -0.15165035 -0.42015517 -0.1383769
0.011771246 -0.13526477 -0.34268767 -0.16145392 -0.13685703 -0.1871854 -0.28423715 -0.040731274
0.013941347 -0.20425417 -0.2644776 -0.1260076 0.06610927 0.14712448 -0.2524254 -0.018572332
-0.3246545 -0.2638678 -0.17567652 -0.16277583 -0.17757109 -0.22382267 -0.2867003 -0.20765388
-0.059308473 -0.34278834 -0.073024526 -0.10493383 -0.18786013 -0.27319875 -0.31456497 -0.013717355
-0.19169265 -0.28138238 -0.041885957 -0.16439511

recog/birnn/bidirectional_rnn/bw/rnn3/input_to_cell_w i1 [164, 164] scale=0.0142559 zero_point=0
00000000: 06f9 020a 0e06 0c16 fa17 f2f2 e3f4 f5f0
00000010: 05fb 040a 0709 fbf6 ff0a 1106 1c04 00f1
00000020: ec0a 0702 01f8 03f3 f6fa f80b 0809 fc06
00000030: fe0d 040f fcf8 f7ef 0100 fd0d 0406 0109
00000040: 0702 fcf4 ff01 00f4 f50c f704 ecf2 0df3
00000050: f20a fcf7 fb15 fd05 f8fd 0bf5 0901 ff05
00000060: f6f4 fee8 0a08 fefc 0b08 fff6 08fd e1fe
00000070: fbda 07fe 0809 f409 fa08 f704 fa0f fc02
00000080: 0aff 050f f604 faf6 02fb fd05 fc02 01f5
00000090: 07fa 0800 f1fb eef6 04fe 0a0f f9f2 fefd
000000a0: 00fb 07fb 0300 01fd 08f2 04fb f10a f8ff
000000b0: f9f9 fd02 fb0e f6ec 0c05 f70a 070a f800
000000c0: 16fd f3f3 0008 ef06 0607 f8f3 ff01 ec08
000000d0: fef9 0501 0112 fcf7 0a08 f9f9 03f4 fffc
000000e0: fdfe fcfe fe04 0a0f fd27 f6ff fdf5 fb14
000000f0: 03ea 03f4 05fb 0504 f7f4 fcf4 f90d 08ee
0.0855354 -0.0997913 0.0285118 0.14255899 0.1995826 0.0855354 0.1710708 0.3136298
-0.0855354 0.3278857 -0.1995826 -0.1995826 -0.4134211 -0.1710708 -0.1568149 -0.2280944
0.071279496 -0.071279496 0.0570236 0.14255899 0.0997913 0.1283031 -0.071279496 -0.14255899
-0.0142559 0.14255899 0.2423503 0.0855354 0.3991652 0.0570236 0.0 -0.2138385
-0.28511798 0.14255899 0.0997913 0.0285118 0.0142559 -0.1140472 0.0427677 -0.1853267
-0.14255899 -0.0855354 -0.1140472 0.1568149 0.1140472 0.1283031 -0.0570236 0.0855354
-0.0285118 0.1853267 0.0570236 0.2138385 -0.0570236 -0.1140472 -0.1283031 -0.2423503
0.0142559 0.0 -0.0427677 0.1853267 0.0570236 0.0855354 0.0142559 0.1283031
0.0997913 0.0285118 -0.0570236 -0.1710708 -0.0142559 0.0142559 0.0 -0.1710708
-0.1568149 0.1710708 -0.1283031 0.0570236 -0.28511798 -0.1995826 0.1853267 -0.1853267
-0.1995826 0.14255899 -0.0570236 -0.1283031 -0.071279496 0.2993739 -0.0427677 0.071279496
-0.1140472 -0.0427677 0.1568149 -0.1568149 0.1283031 0.0142559 -0.0142559 0.071279496
-0.14255899 -0.1710708 -0.0285118 -0.3421416 0.14255899 0.1140472 -0.0285118 -0.0570236
0.1568149 0.1140472 -0.0142559 -0.14255899 0.1140472 -0.0427677 -0.4419329 -0.0285118
-0.071279496 -0.5417242 0.0997913 -0.0285118 0.1140472 0.1283031 -0.1710708 0.1283031
-0.0855354 0.1140472 -0.1283031 0.0570236 -0.0855354 0.2138385 -0.0570236 0.0285118
0.14255899 -0.0142559 0.071279496 0.2138385 -0.14255899 0.0570236 -0.0855354 -0.14255899
0.0285118 -0.071279496 -0.0427677 0.071279496 -0.0570236 0.0285118 0.0142559 -0.1568149
0.0997913 -0.0855354 0.1140472 0.0 -0.2138385 -0.071279496 -0.2566062 -0.14255899
0.0570236 -0.0285118 0.14255899 0.2138385 -0.0997913 -0.1995826 -0.0285118 -0.0427677
0.0 -0.071279496 0.0997913 -0.071279496 0.0427677 0.0 0.0142559 -0.0427677
0.1140472 -0.1995826 0.0570236 -0.071279496 -0.2138385 0.14255899 -0.1140472 -0.0142559
-0.0997913 -0.0997913 -0.0427677 0.0285118 -0.071279496 0.1995826 -0.14255899 -0.28511798
0.1710708 0.071279496 -0.1283031 0.14255899 0.0997913 0.14255899 -0.1140472 0.0
0.3136298 -0.0427677 -0.1853267 -0.1853267 0.0 0.1140472 -0.2423503 0.0855354
0.0855354 0.0997913 -0.1140472 -0.1853267 -0.0142559 0.0142559 -0.28511798 0.1140472
-0.0285118 -0.0997913 0.071279496 0.0142559 0.0142559 0.2566062 -0.0570236 -0.1283031
0.14255899 0.1140472 -0.0997913 -0.0997913 0.0427677 -0.1710708 -0.0142559 -0.0570236
-0.0427677 -0.0285118 -0.0570236 -0.0285118 -0.0285118 0.0570236 0.14255899 0.2138385
-0.0427677 0.5559801 -0.14255899 -0.0142559 -0.0427677 -0.1568149 -0.071279496 0.28511798
0.0427677 -0.3136298 0.0427677 -0.1710708 0.071279496 -0.071279496 0.071279496 0.0570236
-0.1283031 -0.1710708 -0.0570236 -0.1710708 -0.0997913 0.1853267 0.1140472 -0.2566062

recog/birnn/bidirectional_rnn/bw/rnn3/input_to_forget_w i1 [164, 164] scale=0.013233309 zero_point=0
00000000: f308 1c14 101d eb00 15fb dde9 f9fe 0bd1
00000010: f302 0815 f70b ff00 faee 02fc 01e5 fb0f
00000020: f3f3 e823 fefa 00f3 17fc fb03 06d2 f411
00000030: 020f f8ee f600 fd0d dbf6 f60c f6fb 0a11
00000040: f705 ff01 0020 1214 fb12 0af6 f80c e9ff
00000050: 0cef e00f f121 0003 0a30 3cf0 fcd3 1714
00000060: f4e1 00e0 ffea cbff edee e408 ef0e 110a
00000070: 0812 fbf8 ed09 1608 f9ef f9f8 f6db 16e4
00000080: 011e 18f3 f7fc 15fd e729 ed17 0bef fa2e
00000090: 0d0e 070d 22f9 e2ed f90f eaff 0bfc 0004
000000a0: ea11 0902 f203 f9f1 0924 0307 26f2 0102
000000b0: daf9 05e3 fdf5 f4f5 0efc eb08 e5f3 15fa
000000c0: 0cfc f134 08fe 150b 09fb 18fa 21e9 16fc
000000d0: df0e f120 0ef2 f8ff 15fa f50b faef 0610
000000e0: f8f8 2f0e fa0b f6e8 0ce3 fcfc fa0e f2f9
000000f0: 08f6 ed1b eaf0 fae3 070e 05fd fc11 2d11
-0.17203301 0.10586647 0.37053263 0.26466617 0.21173294 0.38376597 -0.27789947 0.0
0.27789947 -0.06616654 -0.4631658 -0.3043661 -0.09263316 -0.026466617 0.14556639 -0.6219655
-0.17203301 0.026466617 0.10586647 0.27789947 -0.11909978 0.14556639 -0.013233309 0.0
-0.079399854 -0.23819956 0.026466617 -0.052933235 0.013233309 -0.35729933 -0.06616654 0.19849963
-0.17203301 -0.17203301 -0.31759942 0.4631658 -0.026466617 -0.079399854 0.0 -0.17203301
0.3043661 -0.052933235 -0.06616654 0.039699927 0.079399854 -0.6087322 -0.15879971 0.22496624
0.026466617 0.19849963 -0.10586647 -0.23819956 -0.13233308 0.0 -0.039699927 0.17203301
-0.48963243 -0.13233308 -0.13233308 0.15879971 -0.13233308 -0.06616654 0.13233308 0.22496624
-0.11909978 0.06616654 -0.013233309 0.013233309 0.0 0.42346588 0.23819956 0.26466617
-0.06616654 0.23819956 0.13233308 -0.13233308 -0.10586647 0.15879971 -0.3043661 -0.013233309
0.15879971 -0.22496624 -0.42346588 0.19849963 -0.19849963 0.43669918 0.0 0.039699927
0.13233308 0.63519883 0.79399854 -0.21173294 -0.052933235 -0.5954989 0.3043661 0.26466617
-0.15879971 -0.41023257 0.0 -0.42346588 -0.013233309 -0.29113278 -0.70136535 -0.013233309
-0.25143287 -0.23819956 -0.37053263 0.10586647 -0.22496624 0.18526632 0.22496624 0.13233308
0.10586647 0.23819956 -0.06616654 -0.10586647 -0.25143287 0.11909978 0.29113278 0.10586647
-0.09263316 -0.22496624 -0.09263316 -0.10586647 -0.13233308 -0.48963243 0.29113278 -0.37053263
0.013233309 0.39699927 0.31759942 -0.17203301 -0.11909978 -0.052933235 0.27789947 -0.039699927
-0.33083272 0.54256564 -0.25143287 0.3043661 0.14556639 -0.22496624 -0.079399854 0.6087322
0.17203301 0.18526632 0.09263316 0.17203301 0.4499325 -0.09263316 -0.39699927 -0.25143287
-0.09263316 0.19849963 -0.29113278 -0.013233309 0.14556639 -0.052933235 0.0 0.052933235
-0.29113278 0.22496624 0.11909978 0.026466617 -0.18526632 0.039699927 -0.09263316 -0.19849963
0.11909978 0.47639912 0.039699927 0.09263316 0.50286573 -0.18526632 0.013233309 0.026466617
-0.50286573 -0.09263316 0.06616654 -0.38376597 -0.039699927 -0.14556639 -0.15879971 -0.14556639
0.18526632 -0.052933235 -0.27789947 0.10586647 -0.35729933 -0.17203301 0.27789947 -0.079399854
0.15879971 -0.052933235 -0.19849963 0.68813205 0.10586647 -0.026466617 0.27789947 0.14556639
0.11909978 -0.06616654 0.31759942 -0.079399854 0.43669918 -0.3043661 0.29113278 -0.052933235
-0.43669918 0.18526632 -0.19849963 0.42346588 0.18526632 -0.18526632 -0.10586647 -0.013233309
0.27789947 -0.079399854 -0.14556639 0.14556639 -0.079399854 -0.22496624 0.079399854 0.21173294
-0.10586647 -0.10586647 0.6219655 0.18526632 -0.079399854 0.14556639 -0.13233308 -0.31759942
0.15879971 -0.38376597 -0.052933235 -0.052933235 -0.079399854 0.18526632 -0.18526632 -0.09263316
0.10586647 -0.13233308 -0.25143287 0.35729933 -0.29113278 -0.21173294 -0.079399854 -0.38376597
0.09263316 0.18526632 0.06616654 -0.039699927 -0.052933235 0.22496624 0.5954989 0.22496624

recog/birnn/bidirectional_rnn/bw/rnn3/input_to_input_w i1 [164, 164] scale=0.012851505 zero_point=0
00000000: 0500 fd07 f9f9 f91d f107 10f8 0bf9 fcee
00000010: f206 0705 f0f7 f9f9 05f3 00fb 07f6 0cef
00000020: 24e9 0df8 1c06 00f0 fb06 f30a e2ef f4fd
00000030: fefb f808 0606 0207 1402 f4eb eef7 fc03
00000040: f800 fbf8 e7f7 05f0 0fe9 dd12 1308 f6fb
00000050: 01f2 02fe dc23 fc10 ece0 ce03 0f13 180f
00000060: 0001 fc0c 17ef f1f8 e9fb 1103 fefd 16eb
00000070: e713 f903 1217 0d0e f5fe 03e6 eef1 170c
00000080: 0b22 0208 0700 f106 1ff3 ea2b f9f9 eee5
00000090: faff fa1c f5f8 e901 03fe 0306 f9fb 04fd
000000a0: f7ee 0cfa f8fe f50a 1326 030b f4ff ff0e
000000b0: edf7 e417 00fc f6e5 14e5 13f5 e5f2 e6fb
000000c0: 03ff 06ed 140f 0bf8 ef00 f809 ef14 0afe
000000d0: 1118 1111 fc04 09fa 1c03 fa02 fd03 05f9
000000e0: e304 09fc 0001 fdf4 e91f fb09 fa05 1302
000000f0: 120e 1410 02f6 fdf9 fa06 feca 10fc f2fb
0.064257525 0.0 -0.038554512 0.08996053 -0.08996053 -0.08996053 -0.08996053 0.37269363
-0.19277257 0.08996053 0.20562407 -0.10281204 0.14136656 -0.08996053 -0.05140602 -0.23132709
-0.17992106 0.077109024 0.08996053 0.064257525 -0.20562407 -0.11566354 -0.08996053 -0.08996053
0.064257525 -0.16706955 0.0 -0.064257525 0.08996053 -0.12851505 0.15421805 -0.21847558
0.46265417 -0.29558462 0.16706955 -0.10281204 0.35984212 0.077109024 0.0 -0.20562407
-0.064257525 0.077109024 -0.16706955 0.12851505 -0.38554513 -0.21847558 -0.15421805 -0.038554512
-0.02570301 -0.064257525 -0.10281204 0.10281204 0.077109024 0.077109024 0.02570301 0.08996053
0.2570301 0.02570301 -0.15421805 -0.2698816 -0.23132709 -0.11566354 -0.05140602 0.038554512
-0.10281204 0.0 -0.064257525 -0.10281204 -0.3212876 -0.11566354 0.064257525 -0.20562407
0.19277257 -0.29558462 -0.44980267 0.23132709 0.2441786 0.10281204 -0.12851505 -0.064257525
0.012851505 -0.17992106 0.02570301 -0.02570301 -0.46265417 0.44980267 -0.05140602 0.20562407
-0.2570301 -0.41124815 -0.6425752 0.038554512 0.19277257 0.2441786 0.3084361 0.19277257
0.0 0.012851505 -0.05140602 0.15421805 0.29558462 -0.21847558 -0.19277257 -0.10281204
-0.29558462 -0.064257525 0.21847558 0.038554512 -0.02570301 -0.038554512 0.2827331 -0.2698816
-0.3212876 0.2441786 -0.08996053 0.038554512 0.23132709 0.29558462 0.16706955 0.17992106
-0.14136656 -0.02570301 0.038554512 -0.3341391 -0.23132709 -0.19277257 0.29558462 0.15421805
0.14136656 0.43695116 0.02570301 0.10281204 0.08996053 0.0 -0.19277257 0.077109024
0.39839664 -0.16706955 -0.2827331 0.5526147 -0.08996053 -0.08996053 -0.23132709 -0.34699062
-0.077109024 -0.012851505 -0.077109024 0.35984212 -0.14136656 -0.10281204 -0.29558462 0.012851505
0.038554512 -0.02570301 0.038554512 0.077109024 -0.08996053 -0.064257525 0.05140602 -0.038554512
-0.11566354 -0.23132709 0.15421805 -0.077109024 -0.10281204 -0.02570301 -0.14136656 0.12851505
0.2441786 0.4883572 0.038554512 0.14136656 -0.15421805 -0.012851505 -0.012851505 0.17992106
-0.2441786 -0.11566354 -0.35984212 0.29558462 0.0 -0.05140602 -0.12851505 -0.34699062
0.2570301 -0.34699062 0.2441786 -0.14136656 -0.34699062 -0.17992106 -0.3341391 -0.064257525
0.038554512 -0.012851505 0.077109024 -0.2441786 0.2570301 0.19277257 0.14136656 -0.10281204
-0.21847558 0.0 -0.10281204 0.11566354 -0.21847558 0.2570301 0.12851505 -0.02570301
0.21847558 0.3084361 0.21847558 0.21847558 -0.05140602 0.05140602 0.11566354 -0.077109024
0.35984212 0.038554512 -0.077109024 0.02570301 -0.038554512 0.038554512 0.064257525 -0.08996053
-0.37269363 0.05140602 0.11566354 -0.05140602 0.0 0.012851505 -0.038554512 -0.15421805
-0.29558462 0.39839664 -0.064257525 0.11566354 -0.077109024 0.064257525 0.2441786 0.02570301
0.23132709 0.17992106 0.2570301 0.20562407 0.02570301 -0.12851505 -0.038554512 -0.08996053
-0.077109024 0.077109024 -0.02570301 -0.69398123 0.20562407 -0.05140602 -0.17992106 -0.064257525

recog/birnn/bidirectional_rnn/bw/rnn3/input_to_output_w i1 [164, 164] scale=0.017378917 zero_point=0
00000000: f600 e515 f711 f300 0722 f703 0efb ed0a
00000010: fff9 0603 f429 1c2d ed0f 1d17 0807 dfe9
00000020: 0808 02f6 eef0 02fc 2d10 1508 0e01 0f00
00000030: faef 0701 f303 01fb f0fe 1a04 0cfc 08fd
00000040: 04f9 ec0d f700 0af4 0716 06f5 07f9 fd1e
00000050: 02f4 001a 280b 010c 000f 0f16 0612 e904
00000060: ed0d 0007 06ff 06d1 0405 20ef 0de7 2b14
00000070: 28ed 03fe ed00 ec0b fbf9 13fb 0327 0d08
00000080: 0d2b defd 0913 effa f90e 0611 0b01 04f7
00000090: 0e01 02fe 0c05 03f6 03f8 0809 05f9 10ff
000000a0: 19ff 02f3 f3f9 0610 11fb f706 ffeb 0ed9
000000b0: 2502 13f9 0222 0f0e 180d f824 0819 0b1f
000000c0: 18f1 ff06 0105 f70a e8f9 10fd 02fd f105
000000d0: f31b efff 0c1d ff14 0905 fc05 f711 1009
000000e0: 17ff 1b12 04ed f103 1dfc e4fe fe03 f317
000000f0: f203 f90b fd0a f515 2407 fc12 0ff7 0d28
-0.17378917 0.0 -0.46923077 0.36495724 -0.15641025 0.2954416 -0.22592592 0.0
0.12165242 0.5908832 -0.15641025 0.05213675 0.24330483 -0.08689459 -0.33019942 0.17378917
-0.017378917 -0.12165242 0.1042735 0.05213675 -0.208547 0.7125356 0.48660967 0.78205127
-0.33019942 0.26068375 0.50398856 0.3997151 0.13903134 0.12165242 -0.57350427 -0.3997151
0.13903134 0.13903134 0.034757834 -0.17378917 -0.3128205 -0.27806267 0.034757834 -0.06951567
0.78205127 0.27806267 0.36495724 0.13903134 0.24330483 0.017378917 0.26068375 0.0
-0.1042735 -0.2954416 0.12165242 0.017378917 -0.22592592 0.05213675 0.017378917 -0.08689459
-0.27806267 -0.034757834 0.45185184 0.06951567 0.208547 -0.06951567 0.13903134 -0.05213675
0.06951567 -0.12165242 -0.34757835 0.22592592 -0.15641025 0.0 0.17378917 -0.208547
0.12165242 0.38233617 0.1042735 -0.19116808 0.12165242 -0.12165242 -0.05213675 0.5213675
0.034757834 -0.208547 0.0 0.45185184 0.6951567 0.19116808 0.017378917 0.208547
0.0 0.26068375 0.26068375 0.38233617 0.1042735 0.3128205 -0.3997151 0.06951567
-0.33019942 0.22592592 0.0 0.12165242 0.1042735 -0.017378917 0.1042735 -0.8168091
0.06951567 0.08689459 0.55612534 -0.2954416 0.22592592 -0.43447292 0.7472934 0.34757835
0.6951567 -0.33019942 0.05213675 -0.034757834 -0.33019942 0.0 -0.34757835 0.19116808
-0.08689459 -0.12165242 0.33019942 -0.08689459 0.05213675 0.67777777 0.22592592 0.13903134
0.22592592 0.7472934 -0.5908832 -0.05213675 0.15641025 0.33019942 -0.2954416 -0.1042735
-0.12165242 0.24330483 0.1042735 0.2954416 0.19116808 0.017378917 0.06951567 -0.15641025
0.24330483 0.017378917 0.034757834 -0.034757834 0.208547 0.08689459 0.05213675 -0.17378917
0.05213675 -0.13903134 0.13903134 0.15641025 0.08689459 -0.12165242 0.27806267 -0.017378917
0.43447292 -0.017378917 0.034757834 -0.22592592 -0.22592592 -0.12165242 0.1042735 0.27806267
0.2954416 -0.08689459 -0.15641025 0.1042735 -0.017378917 -0.36495724 0.24330483 -0.67777777
0.6430199 0.034757834 0.33019942 -0.12165242 0.034757834 0.5908832 0.26068375 0.24330483
0.417094 0.22592592 -0.13903134 0.625641 0.13903134 0.43447292 0.19116808 0.5387464
0.417094 -0.26068375 -0.017378917 0.1042735 0.017378917 0.08689459 -0.15641025 0.17378917
-0.417094 -0.12165242 0.27806267 -0.05213675 0.034757834 -0.05213675 -0.26068375 0.08689459
-0.22592592 0.46923077 -0.2954416 -0.017378917 0.208547 0.50398856 -0.017378917 0.34757835
0.15641025 0.08689459 -0.06951567 0.08689459 -0.15641025 0.2954416 0.27806267 0.15641025
0.3997151 -0.017378917 0.46923077 0.3128205 0.06951567 -0.33019942 -0.26068375 0.05213675
0.50398856 -0.06951567 -0.48660967 -0.034757834 -0.034757834 0.05213675 -0.22592592 0.3997151
-0.24330483 0.05213675 -0.12165242 0.19116808 -0.05213675 0.17378917 -0.19116808 0.36495724
0.625641 0.12165242 -0.06951567 0.3128205 0.26068375 -0.15641025 0.22592592 0.6951567
